{"format": "graph-model", "generatedBy": "2.19.0", "convertedBy": "TensorFlow.js Converter v4.22.0", "signature": {"outputs": {"Identity:0": {"name": "Identity:0"}, "Identity_1:0": {"name": "Identity_1:0"}}}, "modelTopology": {"node": [{"name": "ConstantFolding/model_37/tf.math.divide/truediv_recip", "op": "Const", "attr": {"value": {"tensor": {"dtype": "DT_FLOAT", "tensorShape": {}}}, "dtype": {"type": "DT_FLOAT"}}}, {"name": "model_37/tf.strided_slice_19/ones_like/tensor", "op": "Const", "attr": {"value": {"tensor": {"dtype": "DT_INT64", "tensorShape": {"dim": [{"size": "3"}]}}}, "dtype": {"type": "DT_INT64"}}}, {"name": "model_37/tf.strided_slice_19/StridedSlice/end", "op": "Const", "attr": {"value": {"tensor": {"dtype": "DT_INT64", "tensorShape": {"dim": [{"size": "3"}]}}}, "dtype": {"type": "DT_INT64"}}}, {"name": "model_37/tf.strided_slice_19/ones_like", "op": "Const", "attr": {"value": {"tensor": {"dtype": "DT_INT64", "tensorShape": {"dim": [{"size": "3"}]}}}, "dtype": {"type": "DT_INT64"}}}, {"name": "model_37/tf.math.add_128/Add/y", "op": "Const", "attr": {"value": {"tensor": {"dtype": "DT_FLOAT", "tensorShape": {"dim": [{"size": "1"}, {"size": "2"}, {"size": "2100"}]}}}, "dtype": {"type": "DT_FLOAT"}}}, {"name": "model_37/51282", "op": "Const", "attr": {"value": {"tensor": {"dtype": "DT_FLOAT", "tensorShape": {"dim": [{"size": "1"}, {"size": "2"}, {"size": "2100"}]}}}, "dtype": {"type": "DT_FLOAT"}}}, {"name": "model_37/tf.strided_slice_16/StridedSlice/begin", "op": "Const", "attr": {"value": {"tensor": {"dtype": "DT_INT64", "tensorShape": {"dim": [{"size": "3"}]}}}, "dtype": {"type": "DT_INT64"}}}, {"name": "model_37/tf.strided_slice_16/StridedSlice/end", "op": "Const", "attr": {"value": {"tensor": {"dtype": "DT_INT64", "tensorShape": {"dim": [{"size": "3"}]}}}, "dtype": {"type": "DT_INT64"}}}, {"name": "model_37/tf.strided_slice_16/StridedSlice/strides", "op": "Const", "attr": {"value": {"tensor": {"dtype": "DT_INT64", "tensorShape": {"dim": [{"size": "3"}]}}}, "dtype": {"type": "DT_INT64"}}}, {"name": "model_37/tf.reshape_29/Reshape/shape", "op": "Const", "attr": {"value": {"tensor": {"dtype": "DT_INT32", "tensorShape": {"dim": [{"size": "4"}]}}}, "dtype": {"type": "DT_INT32"}}}, {"name": "model_37/tf.compat.v1.transpose_160/transpose/perm", "op": "Const", "attr": {"value": {"tensor": {"dtype": "DT_INT32", "tensorShape": {"dim": [{"size": "4"}]}}}, "dtype": {"type": "DT_INT32"}}}, {"name": "model_37/tf.compat.v1.transpose_161/transpose/perm", "op": "Const", "attr": {"value": {"tensor": {"dtype": "DT_INT32", "tensorShape": {"dim": [{"size": "4"}]}}}, "dtype": {"type": "DT_INT32"}}}, {"name": "model_37/tf.compat.v1.transpose_162/transpose/perm", "op": "Const", "attr": {"value": {"tensor": {"dtype": "DT_INT32", "tensorShape": {"dim": [{"size": "4"}]}}}, "dtype": {"type": "DT_INT32"}}}, {"name": "model_37/tf.nn.convolution_220/convolution/filter", "op": "Const", "attr": {"value": {"tensor": {"dtype": "DT_FLOAT", "tensorShape": {"dim": [{"size": "1"}, {"size": "1"}, {"size": "16"}, {"size": "1"}]}}}, "dtype": {"type": "DT_FLOAT"}}}, {"name": "model_37/tf.compat.v1.transpose_165/transpose/perm", "op": "Const", "attr": {"value": {"tensor": {"dtype": "DT_INT32", "tensorShape": {"dim": [{"size": "4"}]}}}, "dtype": {"type": "DT_INT32"}}}, {"name": "model_37/tf.reshape_32/Reshape/shape", "op": "Const", "attr": {"value": {"tensor": {"dtype": "DT_INT32", "tensorShape": {"dim": [{"size": "3"}]}}}, "dtype": {"type": "DT_INT32"}}}, {"name": "model_37/tf.strided_slice_18/ones_like/tensor", "op": "Const", "attr": {"value": {"tensor": {"dtype": "DT_INT64", "tensorShape": {"dim": [{"size": "3"}]}}}, "dtype": {"type": "DT_INT64"}}}, {"name": "model_37/tf.strided_slice_18/StridedSlice/end", "op": "Const", "attr": {"value": {"tensor": {"dtype": "DT_INT64", "tensorShape": {"dim": [{"size": "3"}]}}}, "dtype": {"type": "DT_INT64"}}}, {"name": "model_37/tf.strided_slice_18/ones_like", "op": "Const", "attr": {"value": {"tensor": {"dtype": "DT_INT64", "tensorShape": {"dim": [{"size": "3"}]}}}, "dtype": {"type": "DT_INT64"}}}, {"name": "model_37/tf.concat_26/concat/axis", "op": "Const", "attr": {"value": {"tensor": {"dtype": "DT_INT32", "tensorShape": {}}}, "dtype": {"type": "DT_INT32"}}}, {"name": "model_37/tf.math.multiply_387/Mul/y", "op": "Const", "attr": {"value": {"tensor": {"dtype": "DT_FLOAT", "tensorShape": {"dim": [{"size": "1"}, {"size": "1"}, {"size": "2100"}]}}}, "dtype": {"type": "DT_FLOAT"}}}, {"name": "model_37/tf.nn.convolution_178/convolution/filter", "op": "Const", "attr": {"value": {"tensor": {"dtype": "DT_FLOAT", "tensorShape": {"dim": [{"size": "3"}, {"size": "3"}, {"size": "64"}, {"size": "64"}]}}}, "dtype": {"type": "DT_FLOAT"}}}, {"name": "model_37/tf.math.add_73/Add/y", "op": "Const", "attr": {"value": {"tensor": {"dtype": "DT_FLOAT", "tensorShape": {"dim": [{"size": "64"}]}}}, "dtype": {"type": "DT_FLOAT"}}}, {"name": "model_37/tf.nn.convolution_180/convolution/filter", "op": "Const", "attr": {"value": {"tensor": {"dtype": "DT_FLOAT", "tensorShape": {"dim": [{"size": "3"}, {"size": "3"}, {"size": "64"}, {"size": "64"}]}}}, "dtype": {"type": "DT_FLOAT"}}}, {"name": "model_37/tf.math.add_77/Add/y", "op": "Const", "attr": {"value": {"tensor": {"dtype": "DT_FLOAT", "tensorShape": {"dim": [{"size": "64"}]}}}, "dtype": {"type": "DT_FLOAT"}}}, {"name": "model_37/tf.nn.convolution_185/convolution/filter", "op": "Const", "attr": {"value": {"tensor": {"dtype": "DT_FLOAT", "tensorShape": {"dim": [{"size": "1"}, {"size": "1"}, {"size": "64"}, {"size": "64"}]}}}, "dtype": {"type": "DT_FLOAT"}}}, {"name": "model_37/tf.math.add_82/Add/y", "op": "Const", "attr": {"value": {"tensor": {"dtype": "DT_FLOAT", "tensorShape": {"dim": [{"size": "64"}]}}}, "dtype": {"type": "DT_FLOAT"}}}, {"name": "model_37/tf.compat.v1.nn.depthwise_conv2d/depthwise/filter_in", "op": "Const", "attr": {"value": {"tensor": {"dtype": "DT_FLOAT", "tensorShape": {"dim": [{"size": "3"}, {"size": "3"}, {"size": "64"}, {"size": "1"}]}}}, "dtype": {"type": "DT_FLOAT"}}}, {"name": "model_37/tf.math.add_74/Add/y", "op": "Const", "attr": {"value": {"tensor": {"dtype": "DT_FLOAT", "tensorShape": {"dim": [{"size": "64"}]}}}, "dtype": {"type": "DT_FLOAT"}}}, {"name": "model_37/tf.nn.convolution_181/convolution/filter", "op": "Const", "attr": {"value": {"tensor": {"dtype": "DT_FLOAT", "tensorShape": {"dim": [{"size": "1"}, {"size": "1"}, {"size": "64"}, {"size": "64"}]}}}, "dtype": {"type": "DT_FLOAT"}}}, {"name": "model_37/tf.math.add_78/Add/y", "op": "Const", "attr": {"value": {"tensor": {"dtype": "DT_FLOAT", "tensorShape": {"dim": [{"size": "64"}]}}}, "dtype": {"type": "DT_FLOAT"}}}, {"name": "model_37/tf.compat.v1.nn.depthwise_conv2d_1/depthwise/filter_in", "op": "Const", "attr": {"value": {"tensor": {"dtype": "DT_FLOAT", "tensorShape": {"dim": [{"size": "3"}, {"size": "3"}, {"size": "64"}, {"size": "1"}]}}}, "dtype": {"type": "DT_FLOAT"}}}, {"name": "model_37/tf.math.add_83/Add/y", "op": "Const", "attr": {"value": {"tensor": {"dtype": "DT_FLOAT", "tensorShape": {"dim": [{"size": "64"}]}}}, "dtype": {"type": "DT_FLOAT"}}}, {"name": "model_37/tf.nn.convolution_188/convolution/filter", "op": "Const", "attr": {"value": {"tensor": {"dtype": "DT_FLOAT", "tensorShape": {"dim": [{"size": "1"}, {"size": "1"}, {"size": "64"}, {"size": "64"}]}}}, "dtype": {"type": "DT_FLOAT"}}}, {"name": "model_37/tf.math.add_86/Add/y", "op": "Const", "attr": {"value": {"tensor": {"dtype": "DT_FLOAT", "tensorShape": {"dim": [{"size": "64"}]}}}, "dtype": {"type": "DT_FLOAT"}}}, {"name": "model_37/tf.nn.convolution_190/convolution/filter", "op": "Const", "attr": {"value": {"tensor": {"dtype": "DT_FLOAT", "tensorShape": {"dim": [{"size": "1"}, {"size": "1"}, {"size": "64"}, {"size": "7"}]}}}, "dtype": {"type": "DT_FLOAT"}}}, {"name": "model_37/tf.math.add_88/Add/y", "op": "Const", "attr": {"value": {"tensor": {"dtype": "DT_FLOAT", "tensorShape": {"dim": [{"size": "7"}]}}}, "dtype": {"type": "DT_FLOAT"}}}, {"name": "model_37/tf.concat_14/concat/axis", "op": "Const", "attr": {"value": {"tensor": {"dtype": "DT_INT32", "tensorShape": {}}}, "dtype": {"type": "DT_INT32"}}}, {"name": "model_37/tf.compat.v1.transpose_103/transpose/perm", "op": "Const", "attr": {"value": {"tensor": {"dtype": "DT_INT32", "tensorShape": {"dim": [{"size": "4"}]}}}, "dtype": {"type": "DT_INT32"}}}, {"name": "model_37/tf.reshape_14/Reshape/shape", "op": "Const", "attr": {"value": {"tensor": {"dtype": "DT_INT32", "tensorShape": {"dim": [{"size": "3"}]}}}, "dtype": {"type": "DT_INT32"}}}, {"name": "model_37/tf.nn.convolution_194/convolution/filter", "op": "Const", "attr": {"value": {"tensor": {"dtype": "DT_FLOAT", "tensorShape": {"dim": [{"size": "3"}, {"size": "3"}, {"size": "128"}, {"size": "64"}]}}}, "dtype": {"type": "DT_FLOAT"}}}, {"name": "model_37/tf.math.add_94/Add/y", "op": "Const", "attr": {"value": {"tensor": {"dtype": "DT_FLOAT", "tensorShape": {"dim": [{"size": "64"}]}}}, "dtype": {"type": "DT_FLOAT"}}}, {"name": "model_37/tf.nn.convolution_196/convolution/filter", "op": "Const", "attr": {"value": {"tensor": {"dtype": "DT_FLOAT", "tensorShape": {"dim": [{"size": "3"}, {"size": "3"}, {"size": "64"}, {"size": "64"}]}}}, "dtype": {"type": "DT_FLOAT"}}}, {"name": "model_37/tf.math.add_97/Add/y", "op": "Const", "attr": {"value": {"tensor": {"dtype": "DT_FLOAT", "tensorShape": {"dim": [{"size": "64"}]}}}, "dtype": {"type": "DT_FLOAT"}}}, {"name": "model_37/tf.nn.convolution_200/convolution/filter", "op": "Const", "attr": {"value": {"tensor": {"dtype": "DT_FLOAT", "tensorShape": {"dim": [{"size": "1"}, {"size": "1"}, {"size": "64"}, {"size": "64"}]}}}, "dtype": {"type": "DT_FLOAT"}}}, {"name": "model_37/tf.math.add_101/Add/y", "op": "Const", "attr": {"value": {"tensor": {"dtype": "DT_FLOAT", "tensorShape": {"dim": [{"size": "64"}]}}}, "dtype": {"type": "DT_FLOAT"}}}, {"name": "model_37/tf.compat.v1.nn.depthwise_conv2d_2/depthwise/filter_in", "op": "Const", "attr": {"value": {"tensor": {"dtype": "DT_FLOAT", "tensorShape": {"dim": [{"size": "3"}, {"size": "3"}, {"size": "128"}, {"size": "1"}]}}}, "dtype": {"type": "DT_FLOAT"}}}, {"name": "model_37/tf.math.add_95/Add/y", "op": "Const", "attr": {"value": {"tensor": {"dtype": "DT_FLOAT", "tensorShape": {"dim": [{"size": "128"}]}}}, "dtype": {"type": "DT_FLOAT"}}}, {"name": "model_37/tf.nn.convolution_197/convolution/filter", "op": "Const", "attr": {"value": {"tensor": {"dtype": "DT_FLOAT", "tensorShape": {"dim": [{"size": "1"}, {"size": "1"}, {"size": "128"}, {"size": "64"}]}}}, "dtype": {"type": "DT_FLOAT"}}}, {"name": "model_37/tf.math.add_98/Add/y", "op": "Const", "attr": {"value": {"tensor": {"dtype": "DT_FLOAT", "tensorShape": {"dim": [{"size": "64"}]}}}, "dtype": {"type": "DT_FLOAT"}}}, {"name": "model_37/tf.compat.v1.nn.depthwise_conv2d_3/depthwise/filter_in", "op": "Const", "attr": {"value": {"tensor": {"dtype": "DT_FLOAT", "tensorShape": {"dim": [{"size": "3"}, {"size": "3"}, {"size": "64"}, {"size": "1"}]}}}, "dtype": {"type": "DT_FLOAT"}}}, {"name": "model_37/tf.math.add_102/Add/y", "op": "Const", "attr": {"value": {"tensor": {"dtype": "DT_FLOAT", "tensorShape": {"dim": [{"size": "64"}]}}}, "dtype": {"type": "DT_FLOAT"}}}, {"name": "model_37/tf.nn.convolution_203/convolution/filter", "op": "Const", "attr": {"value": {"tensor": {"dtype": "DT_FLOAT", "tensorShape": {"dim": [{"size": "1"}, {"size": "1"}, {"size": "64"}, {"size": "64"}]}}}, "dtype": {"type": "DT_FLOAT"}}}, {"name": "model_37/tf.math.add_105/Add/y", "op": "Const", "attr": {"value": {"tensor": {"dtype": "DT_FLOAT", "tensorShape": {"dim": [{"size": "64"}]}}}, "dtype": {"type": "DT_FLOAT"}}}, {"name": "model_37/tf.nn.convolution_205/convolution/filter", "op": "Const", "attr": {"value": {"tensor": {"dtype": "DT_FLOAT", "tensorShape": {"dim": [{"size": "1"}, {"size": "1"}, {"size": "64"}, {"size": "7"}]}}}, "dtype": {"type": "DT_FLOAT"}}}, {"name": "model_37/tf.math.add_107/Add/y", "op": "Const", "attr": {"value": {"tensor": {"dtype": "DT_FLOAT", "tensorShape": {"dim": [{"size": "7"}]}}}, "dtype": {"type": "DT_FLOAT"}}}, {"name": "model_37/tf.concat_17/concat/axis", "op": "Const", "attr": {"value": {"tensor": {"dtype": "DT_INT32", "tensorShape": {}}}, "dtype": {"type": "DT_INT32"}}}, {"name": "model_37/tf.compat.v1.transpose_128/transpose/perm", "op": "Const", "attr": {"value": {"tensor": {"dtype": "DT_INT32", "tensorShape": {"dim": [{"size": "4"}]}}}, "dtype": {"type": "DT_INT32"}}}, {"name": "model_37/tf.reshape_20/Reshape/shape", "op": "Const", "attr": {"value": {"tensor": {"dtype": "DT_INT32", "tensorShape": {"dim": [{"size": "3"}]}}}, "dtype": {"type": "DT_INT32"}}}, {"name": "model_37/tf.nn.convolution_212/convolution/filter", "op": "Const", "attr": {"value": {"tensor": {"dtype": "DT_FLOAT", "tensorShape": {"dim": [{"size": "3"}, {"size": "3"}, {"size": "256"}, {"size": "64"}]}}}, "dtype": {"type": "DT_FLOAT"}}}, {"name": "model_37/tf.math.add_118/Add/y", "op": "Const", "attr": {"value": {"tensor": {"dtype": "DT_FLOAT", "tensorShape": {"dim": [{"size": "64"}]}}}, "dtype": {"type": "DT_FLOAT"}}}, {"name": "model_37/tf.nn.convolution_214/convolution/filter", "op": "Const", "attr": {"value": {"tensor": {"dtype": "DT_FLOAT", "tensorShape": {"dim": [{"size": "3"}, {"size": "3"}, {"size": "64"}, {"size": "64"}]}}}, "dtype": {"type": "DT_FLOAT"}}}, {"name": "model_37/tf.math.add_121/Add/y", "op": "Const", "attr": {"value": {"tensor": {"dtype": "DT_FLOAT", "tensorShape": {"dim": [{"size": "64"}]}}}, "dtype": {"type": "DT_FLOAT"}}}, {"name": "model_37/tf.nn.convolution_217/convolution/filter", "op": "Const", "attr": {"value": {"tensor": {"dtype": "DT_FLOAT", "tensorShape": {"dim": [{"size": "1"}, {"size": "1"}, {"size": "64"}, {"size": "64"}]}}}, "dtype": {"type": "DT_FLOAT"}}}, {"name": "model_37/tf.math.add_124/Add/y", "op": "Const", "attr": {"value": {"tensor": {"dtype": "DT_FLOAT", "tensorShape": {"dim": [{"size": "64"}]}}}, "dtype": {"type": "DT_FLOAT"}}}, {"name": "model_37/tf.compat.v1.nn.depthwise_conv2d_4/depthwise/filter_in", "op": "Const", "attr": {"value": {"tensor": {"dtype": "DT_FLOAT", "tensorShape": {"dim": [{"size": "3"}, {"size": "3"}, {"size": "256"}, {"size": "1"}]}}}, "dtype": {"type": "DT_FLOAT"}}}, {"name": "model_37/tf.math.add_119/Add/y", "op": "Const", "attr": {"value": {"tensor": {"dtype": "DT_FLOAT", "tensorShape": {"dim": [{"size": "256"}]}}}, "dtype": {"type": "DT_FLOAT"}}}, {"name": "model_37/tf.nn.convolution_215/convolution/filter", "op": "Const", "attr": {"value": {"tensor": {"dtype": "DT_FLOAT", "tensorShape": {"dim": [{"size": "1"}, {"size": "1"}, {"size": "256"}, {"size": "64"}]}}}, "dtype": {"type": "DT_FLOAT"}}}, {"name": "model_37/tf.math.add_122/Add/y", "op": "Const", "attr": {"value": {"tensor": {"dtype": "DT_FLOAT", "tensorShape": {"dim": [{"size": "64"}]}}}, "dtype": {"type": "DT_FLOAT"}}}, {"name": "model_37/tf.compat.v1.nn.depthwise_conv2d_5/depthwise/filter_in", "op": "Const", "attr": {"value": {"tensor": {"dtype": "DT_FLOAT", "tensorShape": {"dim": [{"size": "3"}, {"size": "3"}, {"size": "64"}, {"size": "1"}]}}}, "dtype": {"type": "DT_FLOAT"}}}, {"name": "model_37/tf.math.add_125/Add/y", "op": "Const", "attr": {"value": {"tensor": {"dtype": "DT_FLOAT", "tensorShape": {"dim": [{"size": "64"}]}}}, "dtype": {"type": "DT_FLOAT"}}}, {"name": "model_37/tf.nn.convolution_218/convolution/filter", "op": "Const", "attr": {"value": {"tensor": {"dtype": "DT_FLOAT", "tensorShape": {"dim": [{"size": "1"}, {"size": "1"}, {"size": "64"}, {"size": "64"}]}}}, "dtype": {"type": "DT_FLOAT"}}}, {"name": "model_37/tf.math.add_126/Add/y", "op": "Const", "attr": {"value": {"tensor": {"dtype": "DT_FLOAT", "tensorShape": {"dim": [{"size": "64"}]}}}, "dtype": {"type": "DT_FLOAT"}}}, {"name": "model_37/tf.nn.convolution_219/convolution/filter", "op": "Const", "attr": {"value": {"tensor": {"dtype": "DT_FLOAT", "tensorShape": {"dim": [{"size": "1"}, {"size": "1"}, {"size": "64"}, {"size": "7"}]}}}, "dtype": {"type": "DT_FLOAT"}}}, {"name": "model_37/tf.math.add_127/Add/y", "op": "Const", "attr": {"value": {"tensor": {"dtype": "DT_FLOAT", "tensorShape": {"dim": [{"size": "7"}]}}}, "dtype": {"type": "DT_FLOAT"}}}, {"name": "model_37/tf.concat_21/concat/axis", "op": "Const", "attr": {"value": {"tensor": {"dtype": "DT_INT32", "tensorShape": {}}}, "dtype": {"type": "DT_INT32"}}}, {"name": "model_37/tf.compat.v1.transpose_153/transpose/perm", "op": "Const", "attr": {"value": {"tensor": {"dtype": "DT_INT32", "tensorShape": {"dim": [{"size": "4"}]}}}, "dtype": {"type": "DT_INT32"}}}, {"name": "model_37/tf.reshape_26/Reshape/shape", "op": "Const", "attr": {"value": {"tensor": {"dtype": "DT_INT32", "tensorShape": {"dim": [{"size": "3"}]}}}, "dtype": {"type": "DT_INT32"}}}, {"name": "model_37/tf.concat_22/concat/axis", "op": "Const", "attr": {"value": {"tensor": {"dtype": "DT_INT32", "tensorShape": {}}}, "dtype": {"type": "DT_INT32"}}}, {"name": "model_37/tf.strided_slice_17/StridedSlice/begin", "op": "Const", "attr": {"value": {"tensor": {"dtype": "DT_INT64", "tensorShape": {"dim": [{"size": "3"}]}}}, "dtype": {"type": "DT_INT64"}}}, {"name": "model_37/tf.strided_slice_17/StridedSlice/end", "op": "Const", "attr": {"value": {"tensor": {"dtype": "DT_INT64", "tensorShape": {"dim": [{"size": "3"}]}}}, "dtype": {"type": "DT_INT64"}}}, {"name": "model_37/tf.strided_slice_17/StridedSlice/strides", "op": "Const", "attr": {"value": {"tensor": {"dtype": "DT_INT64", "tensorShape": {"dim": [{"size": "3"}]}}}, "dtype": {"type": "DT_INT64"}}}, {"name": "model_37/tf.nn.convolution_177/convolution/filter", "op": "Const", "attr": {"value": {"tensor": {"dtype": "DT_FLOAT", "tensorShape": {"dim": [{"size": "3"}, {"size": "3"}, {"size": "64"}, {"size": "32"}]}}}, "dtype": {"type": "DT_FLOAT"}}}, {"name": "model_37/tf.math.add_72/Add/y", "op": "Const", "attr": {"value": {"tensor": {"dtype": "DT_FLOAT", "tensorShape": {"dim": [{"size": "32"}]}}}, "dtype": {"type": "DT_FLOAT"}}}, {"name": "model_37/tf.nn.convolution_179/convolution/filter", "op": "Const", "attr": {"value": {"tensor": {"dtype": "DT_FLOAT", "tensorShape": {"dim": [{"size": "3"}, {"size": "3"}, {"size": "32"}, {"size": "32"}]}}}, "dtype": {"type": "DT_FLOAT"}}}, {"name": "model_37/tf.math.add_76/Add/y", "op": "Const", "attr": {"value": {"tensor": {"dtype": "DT_FLOAT", "tensorShape": {"dim": [{"size": "32"}]}}}, "dtype": {"type": "DT_FLOAT"}}}, {"name": "model_37/tf.nn.convolution_184/convolution/filter", "op": "Const", "attr": {"value": {"tensor": {"dtype": "DT_FLOAT", "tensorShape": {"dim": [{"size": "1"}, {"size": "1"}, {"size": "32"}, {"size": "32"}]}}}, "dtype": {"type": "DT_FLOAT"}}}, {"name": "model_37/tf.math.add_81/Add/y", "op": "Const", "attr": {"value": {"tensor": {"dtype": "DT_FLOAT", "tensorShape": {"dim": [{"size": "32"}]}}}, "dtype": {"type": "DT_FLOAT"}}}, {"name": "model_37/tf.compat.v1.transpose_93/transpose/perm", "op": "Const", "attr": {"value": {"tensor": {"dtype": "DT_INT32", "tensorShape": {"dim": [{"size": "4"}]}}}, "dtype": {"type": "DT_INT32"}}}, {"name": "model_37/tf.reshape_11/Reshape/shape", "op": "Const", "attr": {"value": {"tensor": {"dtype": "DT_INT32", "tensorShape": {"dim": [{"size": "3"}]}}}, "dtype": {"type": "DT_INT32"}}}, {"name": "model_37/tf.nn.convolution_193/convolution/filter", "op": "Const", "attr": {"value": {"tensor": {"dtype": "DT_FLOAT", "tensorShape": {"dim": [{"size": "3"}, {"size": "3"}, {"size": "128"}, {"size": "32"}]}}}, "dtype": {"type": "DT_FLOAT"}}}, {"name": "model_37/tf.math.add_93/Add/y", "op": "Const", "attr": {"value": {"tensor": {"dtype": "DT_FLOAT", "tensorShape": {"dim": [{"size": "32"}]}}}, "dtype": {"type": "DT_FLOAT"}}}, {"name": "model_37/tf.nn.convolution_195/convolution/filter", "op": "Const", "attr": {"value": {"tensor": {"dtype": "DT_FLOAT", "tensorShape": {"dim": [{"size": "3"}, {"size": "3"}, {"size": "32"}, {"size": "32"}]}}}, "dtype": {"type": "DT_FLOAT"}}}, {"name": "model_37/tf.math.add_96/Add/y", "op": "Const", "attr": {"value": {"tensor": {"dtype": "DT_FLOAT", "tensorShape": {"dim": [{"size": "32"}]}}}, "dtype": {"type": "DT_FLOAT"}}}, {"name": "model_37/tf.nn.convolution_199/convolution/filter", "op": "Const", "attr": {"value": {"tensor": {"dtype": "DT_FLOAT", "tensorShape": {"dim": [{"size": "1"}, {"size": "1"}, {"size": "32"}, {"size": "32"}]}}}, "dtype": {"type": "DT_FLOAT"}}}, {"name": "model_37/tf.math.add_100/Add/y", "op": "Const", "attr": {"value": {"tensor": {"dtype": "DT_FLOAT", "tensorShape": {"dim": [{"size": "32"}]}}}, "dtype": {"type": "DT_FLOAT"}}}, {"name": "model_37/tf.compat.v1.transpose_118/transpose/perm", "op": "Const", "attr": {"value": {"tensor": {"dtype": "DT_INT32", "tensorShape": {"dim": [{"size": "4"}]}}}, "dtype": {"type": "DT_INT32"}}}, {"name": "model_37/tf.reshape_17/Reshape/shape", "op": "Const", "attr": {"value": {"tensor": {"dtype": "DT_INT32", "tensorShape": {"dim": [{"size": "3"}]}}}, "dtype": {"type": "DT_INT32"}}}, {"name": "model_37/tf.strided_slice_14/ones_like/tensor", "op": "Const", "attr": {"value": {"tensor": {"dtype": "DT_INT64", "tensorShape": {"dim": [{"size": "4"}]}}}, "dtype": {"type": "DT_INT64"}}}, {"name": "model_37/tf.strided_slice_14/StridedSlice/end", "op": "Const", "attr": {"value": {"tensor": {"dtype": "DT_INT64", "tensorShape": {"dim": [{"size": "4"}]}}}, "dtype": {"type": "DT_INT64"}}}, {"name": "model_37/tf.strided_slice_14/ones_like", "op": "Const", "attr": {"value": {"tensor": {"dtype": "DT_INT64", "tensorShape": {"dim": [{"size": "4"}]}}}, "dtype": {"type": "DT_INT64"}}}, {"name": "model_37/tf.nn.convolution_201/convolution/filter", "op": "Const", "attr": {"value": {"tensor": {"dtype": "DT_FLOAT", "tensorShape": {"dim": [{"size": "1"}, {"size": "1"}, {"size": "128"}, {"size": "64"}]}}}, "dtype": {"type": "DT_FLOAT"}}}, {"name": "model_37/tf.math.add_103/Add/y", "op": "Const", "attr": {"value": {"tensor": {"dtype": "DT_FLOAT", "tensorShape": {"dim": [{"size": "64"}]}}}, "dtype": {"type": "DT_FLOAT"}}}, {"name": "model_37/tf.nn.convolution_204/convolution/filter", "op": "Const", "attr": {"value": {"tensor": {"dtype": "DT_FLOAT", "tensorShape": {"dim": [{"size": "3"}, {"size": "3"}, {"size": "64"}, {"size": "64"}]}}}, "dtype": {"type": "DT_FLOAT"}}}, {"name": "model_37/tf.math.add_106/Add/y", "op": "Const", "attr": {"value": {"tensor": {"dtype": "DT_FLOAT", "tensorShape": {"dim": [{"size": "64"}]}}}, "dtype": {"type": "DT_FLOAT"}}}, {"name": "model_37/tf.nn.convolution_206/convolution/filter", "op": "Const", "attr": {"value": {"tensor": {"dtype": "DT_FLOAT", "tensorShape": {"dim": [{"size": "3"}, {"size": "3"}, {"size": "64"}, {"size": "64"}]}}}, "dtype": {"type": "DT_FLOAT"}}}, {"name": "model_37/tf.math.add_108/Add/y", "op": "Const", "attr": {"value": {"tensor": {"dtype": "DT_FLOAT", "tensorShape": {"dim": [{"size": "64"}]}}}, "dtype": {"type": "DT_FLOAT"}}}, {"name": "model_37/tf.nn.convolution_207/convolution/filter", "op": "Const", "attr": {"value": {"tensor": {"dtype": "DT_FLOAT", "tensorShape": {"dim": [{"size": "3"}, {"size": "3"}, {"size": "64"}, {"size": "64"}]}}}, "dtype": {"type": "DT_FLOAT"}}}, {"name": "model_37/tf.math.add_111/Add/y", "op": "Const", "attr": {"value": {"tensor": {"dtype": "DT_FLOAT", "tensorShape": {"dim": [{"size": "64"}]}}}, "dtype": {"type": "DT_FLOAT"}}}, {"name": "model_37/tf.nn.convolution_208/convolution/filter", "op": "Const", "attr": {"value": {"tensor": {"dtype": "DT_FLOAT", "tensorShape": {"dim": [{"size": "3"}, {"size": "3"}, {"size": "64"}, {"size": "64"}]}}}, "dtype": {"type": "DT_FLOAT"}}}, {"name": "model_37/tf.math.add_112/Add/y", "op": "Const", "attr": {"value": {"tensor": {"dtype": "DT_FLOAT", "tensorShape": {"dim": [{"size": "64"}]}}}, "dtype": {"type": "DT_FLOAT"}}}, {"name": "model_37/tf.strided_slice_12/ones_like/tensor", "op": "Const", "attr": {"value": {"tensor": {"dtype": "DT_INT64", "tensorShape": {"dim": [{"size": "4"}]}}}, "dtype": {"type": "DT_INT64"}}}, {"name": "model_37/tf.strided_slice_12/StridedSlice/end", "op": "Const", "attr": {"value": {"tensor": {"dtype": "DT_INT64", "tensorShape": {"dim": [{"size": "4"}]}}}, "dtype": {"type": "DT_INT64"}}}, {"name": "model_37/tf.strided_slice_12/ones_like", "op": "Const", "attr": {"value": {"tensor": {"dtype": "DT_INT64", "tensorShape": {"dim": [{"size": "4"}]}}}, "dtype": {"type": "DT_INT64"}}}, {"name": "model_37/tf.compat.v1.pad_5/Pad/paddings", "op": "Const", "attr": {"value": {"tensor": {"dtype": "DT_INT32", "tensorShape": {"dim": [{"size": "4"}, {"size": "2"}]}}}, "dtype": {"type": "DT_INT32"}}}, {"name": "model_37/tf.nn.convolution_175/convolution/filter", "op": "Const", "attr": {"value": {"tensor": {"dtype": "DT_FLOAT", "tensorShape": {"dim": [{"size": "3"}, {"size": "3"}, {"size": "64"}, {"size": "64"}]}}}, "dtype": {"type": "DT_FLOAT"}}}, {"name": "model_37/tf.math.add_70/Add/y", "op": "Const", "attr": {"value": {"tensor": {"dtype": "DT_FLOAT", "tensorShape": {"dim": [{"size": "64"}]}}}, "dtype": {"type": "DT_FLOAT"}}}, {"name": "model_37/tf.concat_13/concat/axis", "op": "Const", "attr": {"value": {"tensor": {"dtype": "DT_INT32", "tensorShape": {}}}, "dtype": {"type": "DT_INT32"}}}, {"name": "model_37/tf.nn.convolution_182/convolution/filter", "op": "Const", "attr": {"value": {"tensor": {"dtype": "DT_FLOAT", "tensorShape": {"dim": [{"size": "1"}, {"size": "1"}, {"size": "192"}, {"size": "128"}]}}}, "dtype": {"type": "DT_FLOAT"}}}, {"name": "model_37/tf.math.add_79/Add/y", "op": "Const", "attr": {"value": {"tensor": {"dtype": "DT_FLOAT", "tensorShape": {"dim": [{"size": "128"}]}}}, "dtype": {"type": "DT_FLOAT"}}}, {"name": "model_37/tf.strided_slice_13/ones_like/tensor", "op": "Const", "attr": {"value": {"tensor": {"dtype": "DT_INT64", "tensorShape": {"dim": [{"size": "4"}]}}}, "dtype": {"type": "DT_INT64"}}}, {"name": "model_37/tf.strided_slice_13/StridedSlice/end", "op": "Const", "attr": {"value": {"tensor": {"dtype": "DT_INT64", "tensorShape": {"dim": [{"size": "4"}]}}}, "dtype": {"type": "DT_INT64"}}}, {"name": "model_37/tf.strided_slice_13/ones_like", "op": "Const", "attr": {"value": {"tensor": {"dtype": "DT_INT64", "tensorShape": {"dim": [{"size": "4"}]}}}, "dtype": {"type": "DT_INT64"}}}, {"name": "model_37/tf.nn.convolution_187/convolution/filter", "op": "Const", "attr": {"value": {"tensor": {"dtype": "DT_FLOAT", "tensorShape": {"dim": [{"size": "3"}, {"size": "3"}, {"size": "64"}, {"size": "32"}]}}}, "dtype": {"type": "DT_FLOAT"}}}, {"name": "model_37/tf.math.add_85/Add/y", "op": "Const", "attr": {"value": {"tensor": {"dtype": "DT_FLOAT", "tensorShape": {"dim": [{"size": "32"}]}}}, "dtype": {"type": "DT_FLOAT"}}}, {"name": "model_37/tf.nn.convolution_189/convolution/filter", "op": "Const", "attr": {"value": {"tensor": {"dtype": "DT_FLOAT", "tensorShape": {"dim": [{"size": "3"}, {"size": "3"}, {"size": "32"}, {"size": "64"}]}}}, "dtype": {"type": "DT_FLOAT"}}}, {"name": "model_37/tf.math.add_87/Add/y", "op": "Const", "attr": {"value": {"tensor": {"dtype": "DT_FLOAT", "tensorShape": {"dim": [{"size": "64"}]}}}, "dtype": {"type": "DT_FLOAT"}}}, {"name": "model_37/tf.concat_15/concat/axis", "op": "Const", "attr": {"value": {"tensor": {"dtype": "DT_INT32", "tensorShape": {}}}, "dtype": {"type": "DT_INT32"}}}, {"name": "model_37/tf.nn.convolution_191/convolution/filter", "op": "Const", "attr": {"value": {"tensor": {"dtype": "DT_FLOAT", "tensorShape": {"dim": [{"size": "1"}, {"size": "1"}, {"size": "192"}, {"size": "128"}]}}}, "dtype": {"type": "DT_FLOAT"}}}, {"name": "model_37/tf.math.add_91/Add/y", "op": "Const", "attr": {"value": {"tensor": {"dtype": "DT_FLOAT", "tensorShape": {"dim": [{"size": "128"}]}}}, "dtype": {"type": "DT_FLOAT"}}}, {"name": "model_37/tf.compat.v1.pad_6/Pad/paddings", "op": "Const", "attr": {"value": {"tensor": {"dtype": "DT_INT32", "tensorShape": {"dim": [{"size": "4"}, {"size": "2"}]}}}, "dtype": {"type": "DT_INT32"}}}, {"name": "model_37/tf.nn.convolution_192/convolution/filter", "op": "Const", "attr": {"value": {"tensor": {"dtype": "DT_FLOAT", "tensorShape": {"dim": [{"size": "3"}, {"size": "3"}, {"size": "128"}, {"size": "128"}]}}}, "dtype": {"type": "DT_FLOAT"}}}, {"name": "model_37/tf.math.add_92/Add/y", "op": "Const", "attr": {"value": {"tensor": {"dtype": "DT_FLOAT", "tensorShape": {"dim": [{"size": "128"}]}}}, "dtype": {"type": "DT_FLOAT"}}}, {"name": "model_37/tf.concat_16/concat/axis", "op": "Const", "attr": {"value": {"tensor": {"dtype": "DT_INT32", "tensorShape": {}}}, "dtype": {"type": "DT_INT32"}}}, {"name": "model_37/tf.nn.convolution_198/convolution/filter", "op": "Const", "attr": {"value": {"tensor": {"dtype": "DT_FLOAT", "tensorShape": {"dim": [{"size": "1"}, {"size": "1"}, {"size": "384"}, {"size": "256"}]}}}, "dtype": {"type": "DT_FLOAT"}}}, {"name": "model_37/tf.math.add_99/Add/y", "op": "Const", "attr": {"value": {"tensor": {"dtype": "DT_FLOAT", "tensorShape": {"dim": [{"size": "256"}]}}}, "dtype": {"type": "DT_FLOAT"}}}, {"name": "model_37/tf.strided_slice_15/ones_like/tensor", "op": "Const", "attr": {"value": {"tensor": {"dtype": "DT_INT64", "tensorShape": {"dim": [{"size": "4"}]}}}, "dtype": {"type": "DT_INT64"}}}, {"name": "model_37/tf.strided_slice_15/StridedSlice/end", "op": "Const", "attr": {"value": {"tensor": {"dtype": "DT_INT64", "tensorShape": {"dim": [{"size": "4"}]}}}, "dtype": {"type": "DT_INT64"}}}, {"name": "model_37/tf.strided_slice_15/ones_like", "op": "Const", "attr": {"value": {"tensor": {"dtype": "DT_INT64", "tensorShape": {"dim": [{"size": "4"}]}}}, "dtype": {"type": "DT_INT64"}}}, {"name": "model_37/tf.nn.convolution_202/convolution/filter", "op": "Const", "attr": {"value": {"tensor": {"dtype": "DT_FLOAT", "tensorShape": {"dim": [{"size": "1"}, {"size": "1"}, {"size": "128"}, {"size": "64"}]}}}, "dtype": {"type": "DT_FLOAT"}}}, {"name": "model_37/tf.math.add_104/Add/y", "op": "Const", "attr": {"value": {"tensor": {"dtype": "DT_FLOAT", "tensorShape": {"dim": [{"size": "64"}]}}}, "dtype": {"type": "DT_FLOAT"}}}, {"name": "model_37/tf.concat_18/concat/axis", "op": "Const", "attr": {"value": {"tensor": {"dtype": "DT_INT32", "tensorShape": {}}}, "dtype": {"type": "DT_INT32"}}}, {"name": "model_37/tf.nn.convolution_209/convolution/filter", "op": "Const", "attr": {"value": {"tensor": {"dtype": "DT_FLOAT", "tensorShape": {"dim": [{"size": "1"}, {"size": "1"}, {"size": "128"}, {"size": "128"}]}}}, "dtype": {"type": "DT_FLOAT"}}}, {"name": "model_37/tf.math.add_115/Add/y", "op": "Const", "attr": {"value": {"tensor": {"dtype": "DT_FLOAT", "tensorShape": {"dim": [{"size": "128"}]}}}, "dtype": {"type": "DT_FLOAT"}}}, {"name": "model_37/tf.concat_19/concat/axis", "op": "Const", "attr": {"value": {"tensor": {"dtype": "DT_INT32", "tensorShape": {}}}, "dtype": {"type": "DT_INT32"}}}, {"name": "model_37/tf.nn.convolution_210/convolution/filter", "op": "Const", "attr": {"value": {"tensor": {"dtype": "DT_FLOAT", "tensorShape": {"dim": [{"size": "1"}, {"size": "1"}, {"size": "384"}, {"size": "256"}]}}}, "dtype": {"type": "DT_FLOAT"}}}, {"name": "model_37/tf.math.add_116/Add/y", "op": "Const", "attr": {"value": {"tensor": {"dtype": "DT_FLOAT", "tensorShape": {"dim": [{"size": "256"}]}}}, "dtype": {"type": "DT_FLOAT"}}}, {"name": "model_37/tf.nn.convolution_211/convolution/filter", "op": "Const", "attr": {"value": {"tensor": {"dtype": "DT_FLOAT", "tensorShape": {"dim": [{"size": "3"}, {"size": "3"}, {"size": "256"}, {"size": "32"}]}}}, "dtype": {"type": "DT_FLOAT"}}}, {"name": "model_37/tf.math.add_117/Add/y", "op": "Const", "attr": {"value": {"tensor": {"dtype": "DT_FLOAT", "tensorShape": {"dim": [{"size": "32"}]}}}, "dtype": {"type": "DT_FLOAT"}}}, {"name": "model_37/tf.nn.convolution_213/convolution/filter", "op": "Const", "attr": {"value": {"tensor": {"dtype": "DT_FLOAT", "tensorShape": {"dim": [{"size": "3"}, {"size": "3"}, {"size": "32"}, {"size": "32"}]}}}, "dtype": {"type": "DT_FLOAT"}}}, {"name": "model_37/tf.math.add_120/Add/y", "op": "Const", "attr": {"value": {"tensor": {"dtype": "DT_FLOAT", "tensorShape": {"dim": [{"size": "32"}]}}}, "dtype": {"type": "DT_FLOAT"}}}, {"name": "model_37/tf.nn.convolution_216/convolution/filter", "op": "Const", "attr": {"value": {"tensor": {"dtype": "DT_FLOAT", "tensorShape": {"dim": [{"size": "1"}, {"size": "1"}, {"size": "32"}, {"size": "32"}]}}}, "dtype": {"type": "DT_FLOAT"}}}, {"name": "model_37/tf.math.add_123/Add/y", "op": "Const", "attr": {"value": {"tensor": {"dtype": "DT_FLOAT", "tensorShape": {"dim": [{"size": "32"}]}}}, "dtype": {"type": "DT_FLOAT"}}}, {"name": "model_37/tf.compat.v1.transpose_146/transpose/perm", "op": "Const", "attr": {"value": {"tensor": {"dtype": "DT_INT32", "tensorShape": {"dim": [{"size": "4"}]}}}, "dtype": {"type": "DT_INT32"}}}, {"name": "model_37/tf.reshape_23/Reshape/shape", "op": "Const", "attr": {"value": {"tensor": {"dtype": "DT_INT32", "tensorShape": {"dim": [{"size": "3"}]}}}, "dtype": {"type": "DT_INT32"}}}, {"name": "model_37/tf.concat_20/concat/axis", "op": "Const", "attr": {"value": {"tensor": {"dtype": "DT_INT32", "tensorShape": {}}}, "dtype": {"type": "DT_INT32"}}}, {"name": "model_37/output0/concat/axis", "op": "Const", "attr": {"value": {"tensor": {"dtype": "DT_INT32", "tensorShape": {}}}, "dtype": {"type": "DT_INT32"}}}, {"name": "model_37/tf.nn.conv2d_transpose/conv2d_transpose/input_sizes", "op": "Const", "attr": {"value": {"tensor": {"dtype": "DT_INT32", "tensorShape": {"dim": [{"size": "4"}]}}}, "dtype": {"type": "DT_INT32"}}}, {"name": "model_37/tf.nn.conv2d_transpose/conv2d_transpose/filter", "op": "Const", "attr": {"value": {"tensor": {"dtype": "DT_FLOAT", "tensorShape": {"dim": [{"size": "2"}, {"size": "2"}, {"size": "64"}, {"size": "64"}]}}}, "dtype": {"type": "DT_FLOAT"}}}, {"name": "model_37/tf.strided_slice_10/ones_like/tensor", "op": "Const", "attr": {"value": {"tensor": {"dtype": "DT_INT64", "tensorShape": {"dim": [{"size": "4"}]}}}, "dtype": {"type": "DT_INT64"}}}, {"name": "model_37/tf.strided_slice_10/StridedSlice/end", "op": "Const", "attr": {"value": {"tensor": {"dtype": "DT_INT64", "tensorShape": {"dim": [{"size": "4"}]}}}, "dtype": {"type": "DT_INT64"}}}, {"name": "model_37/tf.strided_slice_10/ones_like", "op": "Const", "attr": {"value": {"tensor": {"dtype": "DT_INT64", "tensorShape": {"dim": [{"size": "4"}]}}}, "dtype": {"type": "DT_INT64"}}}, {"name": "model_37/tf.strided_slice_8/ones_like/tensor", "op": "Const", "attr": {"value": {"tensor": {"dtype": "DT_INT64", "tensorShape": {"dim": [{"size": "4"}]}}}, "dtype": {"type": "DT_INT64"}}}, {"name": "model_37/tf.strided_slice_8/StridedSlice/end", "op": "Const", "attr": {"value": {"tensor": {"dtype": "DT_INT64", "tensorShape": {"dim": [{"size": "4"}]}}}, "dtype": {"type": "DT_INT64"}}}, {"name": "model_37/tf.strided_slice_8/ones_like", "op": "Const", "attr": {"value": {"tensor": {"dtype": "DT_INT64", "tensorShape": {"dim": [{"size": "4"}]}}}, "dtype": {"type": "DT_INT64"}}}, {"name": "model_37/tf.math.add_54/Add/y", "op": "Const", "attr": {"value": {"tensor": {"dtype": "DT_FLOAT", "tensorShape": {"dim": [{"size": "128"}]}}}, "dtype": {"type": "DT_FLOAT"}}}, {"name": "model_37/tf.math.add_50/Add/y", "op": "Const", "attr": {"value": {"tensor": {"dtype": "DT_FLOAT", "tensorShape": {"dim": [{"size": "128"}]}}}, "dtype": {"type": "DT_FLOAT"}}}, {"name": "model_37/tf.math.add_47/Add/y", "op": "Const", "attr": {"value": {"tensor": {"dtype": "DT_FLOAT", "tensorShape": {"dim": [{"size": "128"}]}}}, "dtype": {"type": "DT_FLOAT"}}}, {"name": "model_37/tf.math.multiply_150/Mul/y", "op": "Const", "attr": {"value": {"tensor": {"dtype": "DT_FLOAT", "tensorShape": {}}}, "dtype": {"type": "DT_FLOAT"}}}, {"name": "model_37/tf.reshape_8/Reshape/shape", "op": "Const", "attr": {"value": {"tensor": {"dtype": "DT_INT32", "tensorShape": {"dim": [{"size": "4"}]}}}, "dtype": {"type": "DT_INT32"}}}, {"name": "model_37/tf.compat.v1.transpose_65/transpose/perm", "op": "Const", "attr": {"value": {"tensor": {"dtype": "DT_INT32", "tensorShape": {"dim": [{"size": "4"}]}}}, "dtype": {"type": "DT_INT32"}}}, {"name": "model_37/tf.nn.convolution_35/convolution/filter", "op": "Const", "attr": {"value": {"tensor": {"dtype": "DT_FLOAT", "tensorShape": {"dim": [{"size": "3"}, {"size": "3"}, {"size": "1"}, {"size": "1"}]}}}, "dtype": {"type": "DT_FLOAT"}}}, {"name": "model_37/tf.nn.convolution_36/convolution/filter", "op": "Const", "attr": {"value": {"tensor": {"dtype": "DT_FLOAT", "tensorShape": {"dim": [{"size": "3"}, {"size": "3"}, {"size": "1"}, {"size": "1"}]}}}, "dtype": {"type": "DT_FLOAT"}}}, {"name": "model_37/tf.nn.convolution_37/convolution/filter", "op": "Const", "attr": {"value": {"tensor": {"dtype": "DT_FLOAT", "tensorShape": {"dim": [{"size": "3"}, {"size": "3"}, {"size": "1"}, {"size": "1"}]}}}, "dtype": {"type": "DT_FLOAT"}}}, {"name": "model_37/tf.nn.convolution_38/convolution/filter", "op": "Const", "attr": {"value": {"tensor": {"dtype": "DT_FLOAT", "tensorShape": {"dim": [{"size": "3"}, {"size": "3"}, {"size": "1"}, {"size": "1"}]}}}, "dtype": {"type": "DT_FLOAT"}}}, {"name": "model_37/tf.nn.convolution_39/convolution/filter", "op": "Const", "attr": {"value": {"tensor": {"dtype": "DT_FLOAT", "tensorShape": {"dim": [{"size": "3"}, {"size": "3"}, {"size": "1"}, {"size": "1"}]}}}, "dtype": {"type": "DT_FLOAT"}}}, {"name": "model_37/tf.nn.convolution_40/convolution/filter", "op": "Const", "attr": {"value": {"tensor": {"dtype": "DT_FLOAT", "tensorShape": {"dim": [{"size": "3"}, {"size": "3"}, {"size": "1"}, {"size": "1"}]}}}, "dtype": {"type": "DT_FLOAT"}}}, {"name": "model_37/tf.nn.convolution_41/convolution/filter", "op": "Const", "attr": {"value": {"tensor": {"dtype": "DT_FLOAT", "tensorShape": {"dim": [{"size": "3"}, {"size": "3"}, {"size": "1"}, {"size": "1"}]}}}, "dtype": {"type": "DT_FLOAT"}}}, {"name": "model_37/tf.nn.convolution_42/convolution/filter", "op": "Const", "attr": {"value": {"tensor": {"dtype": "DT_FLOAT", "tensorShape": {"dim": [{"size": "3"}, {"size": "3"}, {"size": "1"}, {"size": "1"}]}}}, "dtype": {"type": "DT_FLOAT"}}}, {"name": "model_37/tf.nn.convolution_43/convolution/filter", "op": "Const", "attr": {"value": {"tensor": {"dtype": "DT_FLOAT", "tensorShape": {"dim": [{"size": "3"}, {"size": "3"}, {"size": "1"}, {"size": "1"}]}}}, "dtype": {"type": "DT_FLOAT"}}}, {"name": "model_37/tf.nn.convolution_44/convolution/filter", "op": "Const", "attr": {"value": {"tensor": {"dtype": "DT_FLOAT", "tensorShape": {"dim": [{"size": "3"}, {"size": "3"}, {"size": "1"}, {"size": "1"}]}}}, "dtype": {"type": "DT_FLOAT"}}}, {"name": "model_37/tf.nn.convolution_45/convolution/filter", "op": "Const", "attr": {"value": {"tensor": {"dtype": "DT_FLOAT", "tensorShape": {"dim": [{"size": "3"}, {"size": "3"}, {"size": "1"}, {"size": "1"}]}}}, "dtype": {"type": "DT_FLOAT"}}}, {"name": "model_37/tf.nn.convolution_46/convolution/filter", "op": "Const", "attr": {"value": {"tensor": {"dtype": "DT_FLOAT", "tensorShape": {"dim": [{"size": "3"}, {"size": "3"}, {"size": "1"}, {"size": "1"}]}}}, "dtype": {"type": "DT_FLOAT"}}}, {"name": "model_37/tf.nn.convolution_47/convolution/filter", "op": "Const", "attr": {"value": {"tensor": {"dtype": "DT_FLOAT", "tensorShape": {"dim": [{"size": "3"}, {"size": "3"}, {"size": "1"}, {"size": "1"}]}}}, "dtype": {"type": "DT_FLOAT"}}}, {"name": "model_37/tf.nn.convolution_48/convolution/filter", "op": "Const", "attr": {"value": {"tensor": {"dtype": "DT_FLOAT", "tensorShape": {"dim": [{"size": "3"}, {"size": "3"}, {"size": "1"}, {"size": "1"}]}}}, "dtype": {"type": "DT_FLOAT"}}}, {"name": "model_37/tf.nn.convolution_49/convolution/filter", "op": "Const", "attr": {"value": {"tensor": {"dtype": "DT_FLOAT", "tensorShape": {"dim": [{"size": "3"}, {"size": "3"}, {"size": "1"}, {"size": "1"}]}}}, "dtype": {"type": "DT_FLOAT"}}}, {"name": "model_37/tf.nn.convolution_50/convolution/filter", "op": "Const", "attr": {"value": {"tensor": {"dtype": "DT_FLOAT", "tensorShape": {"dim": [{"size": "3"}, {"size": "3"}, {"size": "1"}, {"size": "1"}]}}}, "dtype": {"type": "DT_FLOAT"}}}, {"name": "model_37/tf.nn.convolution_51/convolution/filter", "op": "Const", "attr": {"value": {"tensor": {"dtype": "DT_FLOAT", "tensorShape": {"dim": [{"size": "3"}, {"size": "3"}, {"size": "1"}, {"size": "1"}]}}}, "dtype": {"type": "DT_FLOAT"}}}, {"name": "model_37/tf.nn.convolution_52/convolution/filter", "op": "Const", "attr": {"value": {"tensor": {"dtype": "DT_FLOAT", "tensorShape": {"dim": [{"size": "3"}, {"size": "3"}, {"size": "1"}, {"size": "1"}]}}}, "dtype": {"type": "DT_FLOAT"}}}, {"name": "model_37/tf.nn.convolution_53/convolution/filter", "op": "Const", "attr": {"value": {"tensor": {"dtype": "DT_FLOAT", "tensorShape": {"dim": [{"size": "3"}, {"size": "3"}, {"size": "1"}, {"size": "1"}]}}}, "dtype": {"type": "DT_FLOAT"}}}, {"name": "model_37/tf.nn.convolution_54/convolution/filter", "op": "Const", "attr": {"value": {"tensor": {"dtype": "DT_FLOAT", "tensorShape": {"dim": [{"size": "3"}, {"size": "3"}, {"size": "1"}, {"size": "1"}]}}}, "dtype": {"type": "DT_FLOAT"}}}, {"name": "model_37/tf.nn.convolution_55/convolution/filter", "op": "Const", "attr": {"value": {"tensor": {"dtype": "DT_FLOAT", "tensorShape": {"dim": [{"size": "3"}, {"size": "3"}, {"size": "1"}, {"size": "1"}]}}}, "dtype": {"type": "DT_FLOAT"}}}, {"name": "model_37/tf.nn.convolution_56/convolution/filter", "op": "Const", "attr": {"value": {"tensor": {"dtype": "DT_FLOAT", "tensorShape": {"dim": [{"size": "3"}, {"size": "3"}, {"size": "1"}, {"size": "1"}]}}}, "dtype": {"type": "DT_FLOAT"}}}, {"name": "model_37/tf.nn.convolution_57/convolution/filter", "op": "Const", "attr": {"value": {"tensor": {"dtype": "DT_FLOAT", "tensorShape": {"dim": [{"size": "3"}, {"size": "3"}, {"size": "1"}, {"size": "1"}]}}}, "dtype": {"type": "DT_FLOAT"}}}, {"name": "model_37/tf.nn.convolution_58/convolution/filter", "op": "Const", "attr": {"value": {"tensor": {"dtype": "DT_FLOAT", "tensorShape": {"dim": [{"size": "3"}, {"size": "3"}, {"size": "1"}, {"size": "1"}]}}}, "dtype": {"type": "DT_FLOAT"}}}, {"name": "model_37/tf.nn.convolution_59/convolution/filter", "op": "Const", "attr": {"value": {"tensor": {"dtype": "DT_FLOAT", "tensorShape": {"dim": [{"size": "3"}, {"size": "3"}, {"size": "1"}, {"size": "1"}]}}}, "dtype": {"type": "DT_FLOAT"}}}, {"name": "model_37/tf.nn.convolution_60/convolution/filter", "op": "Const", "attr": {"value": {"tensor": {"dtype": "DT_FLOAT", "tensorShape": {"dim": [{"size": "3"}, {"size": "3"}, {"size": "1"}, {"size": "1"}]}}}, "dtype": {"type": "DT_FLOAT"}}}, {"name": "model_37/tf.nn.convolution_61/convolution/filter", "op": "Const", "attr": {"value": {"tensor": {"dtype": "DT_FLOAT", "tensorShape": {"dim": [{"size": "3"}, {"size": "3"}, {"size": "1"}, {"size": "1"}]}}}, "dtype": {"type": "DT_FLOAT"}}}, {"name": "model_37/tf.nn.convolution_62/convolution/filter", "op": "Const", "attr": {"value": {"tensor": {"dtype": "DT_FLOAT", "tensorShape": {"dim": [{"size": "3"}, {"size": "3"}, {"size": "1"}, {"size": "1"}]}}}, "dtype": {"type": "DT_FLOAT"}}}, {"name": "model_37/tf.nn.convolution_63/convolution/filter", "op": "Const", "attr": {"value": {"tensor": {"dtype": "DT_FLOAT", "tensorShape": {"dim": [{"size": "3"}, {"size": "3"}, {"size": "1"}, {"size": "1"}]}}}, "dtype": {"type": "DT_FLOAT"}}}, {"name": "model_37/tf.nn.convolution_64/convolution/filter", "op": "Const", "attr": {"value": {"tensor": {"dtype": "DT_FLOAT", "tensorShape": {"dim": [{"size": "3"}, {"size": "3"}, {"size": "1"}, {"size": "1"}]}}}, "dtype": {"type": "DT_FLOAT"}}}, {"name": "model_37/tf.nn.convolution_65/convolution/filter", "op": "Const", "attr": {"value": {"tensor": {"dtype": "DT_FLOAT", "tensorShape": {"dim": [{"size": "3"}, {"size": "3"}, {"size": "1"}, {"size": "1"}]}}}, "dtype": {"type": "DT_FLOAT"}}}, {"name": "model_37/tf.nn.convolution_66/convolution/filter", "op": "Const", "attr": {"value": {"tensor": {"dtype": "DT_FLOAT", "tensorShape": {"dim": [{"size": "3"}, {"size": "3"}, {"size": "1"}, {"size": "1"}]}}}, "dtype": {"type": "DT_FLOAT"}}}, {"name": "model_37/tf.nn.convolution_67/convolution/filter", "op": "Const", "attr": {"value": {"tensor": {"dtype": "DT_FLOAT", "tensorShape": {"dim": [{"size": "3"}, {"size": "3"}, {"size": "1"}, {"size": "1"}]}}}, "dtype": {"type": "DT_FLOAT"}}}, {"name": "model_37/tf.nn.convolution_68/convolution/filter", "op": "Const", "attr": {"value": {"tensor": {"dtype": "DT_FLOAT", "tensorShape": {"dim": [{"size": "3"}, {"size": "3"}, {"size": "1"}, {"size": "1"}]}}}, "dtype": {"type": "DT_FLOAT"}}}, {"name": "model_37/tf.nn.convolution_69/convolution/filter", "op": "Const", "attr": {"value": {"tensor": {"dtype": "DT_FLOAT", "tensorShape": {"dim": [{"size": "3"}, {"size": "3"}, {"size": "1"}, {"size": "1"}]}}}, "dtype": {"type": "DT_FLOAT"}}}, {"name": "model_37/tf.nn.convolution_70/convolution/filter", "op": "Const", "attr": {"value": {"tensor": {"dtype": "DT_FLOAT", "tensorShape": {"dim": [{"size": "3"}, {"size": "3"}, {"size": "1"}, {"size": "1"}]}}}, "dtype": {"type": "DT_FLOAT"}}}, {"name": "model_37/tf.nn.convolution_71/convolution/filter", "op": "Const", "attr": {"value": {"tensor": {"dtype": "DT_FLOAT", "tensorShape": {"dim": [{"size": "3"}, {"size": "3"}, {"size": "1"}, {"size": "1"}]}}}, "dtype": {"type": "DT_FLOAT"}}}, {"name": "model_37/tf.nn.convolution_72/convolution/filter", "op": "Const", "attr": {"value": {"tensor": {"dtype": "DT_FLOAT", "tensorShape": {"dim": [{"size": "3"}, {"size": "3"}, {"size": "1"}, {"size": "1"}]}}}, "dtype": {"type": "DT_FLOAT"}}}, {"name": "model_37/tf.nn.convolution_73/convolution/filter", "op": "Const", "attr": {"value": {"tensor": {"dtype": "DT_FLOAT", "tensorShape": {"dim": [{"size": "3"}, {"size": "3"}, {"size": "1"}, {"size": "1"}]}}}, "dtype": {"type": "DT_FLOAT"}}}, {"name": "model_37/tf.nn.convolution_74/convolution/filter", "op": "Const", "attr": {"value": {"tensor": {"dtype": "DT_FLOAT", "tensorShape": {"dim": [{"size": "3"}, {"size": "3"}, {"size": "1"}, {"size": "1"}]}}}, "dtype": {"type": "DT_FLOAT"}}}, {"name": "model_37/tf.nn.convolution_75/convolution/filter", "op": "Const", "attr": {"value": {"tensor": {"dtype": "DT_FLOAT", "tensorShape": {"dim": [{"size": "3"}, {"size": "3"}, {"size": "1"}, {"size": "1"}]}}}, "dtype": {"type": "DT_FLOAT"}}}, {"name": "model_37/tf.nn.convolution_76/convolution/filter", "op": "Const", "attr": {"value": {"tensor": {"dtype": "DT_FLOAT", "tensorShape": {"dim": [{"size": "3"}, {"size": "3"}, {"size": "1"}, {"size": "1"}]}}}, "dtype": {"type": "DT_FLOAT"}}}, {"name": "model_37/tf.nn.convolution_77/convolution/filter", "op": "Const", "attr": {"value": {"tensor": {"dtype": "DT_FLOAT", "tensorShape": {"dim": [{"size": "3"}, {"size": "3"}, {"size": "1"}, {"size": "1"}]}}}, "dtype": {"type": "DT_FLOAT"}}}, {"name": "model_37/tf.nn.convolution_78/convolution/filter", "op": "Const", "attr": {"value": {"tensor": {"dtype": "DT_FLOAT", "tensorShape": {"dim": [{"size": "3"}, {"size": "3"}, {"size": "1"}, {"size": "1"}]}}}, "dtype": {"type": "DT_FLOAT"}}}, {"name": "model_37/tf.nn.convolution_79/convolution/filter", "op": "Const", "attr": {"value": {"tensor": {"dtype": "DT_FLOAT", "tensorShape": {"dim": [{"size": "3"}, {"size": "3"}, {"size": "1"}, {"size": "1"}]}}}, "dtype": {"type": "DT_FLOAT"}}}, {"name": "model_37/tf.nn.convolution_80/convolution/filter", "op": "Const", "attr": {"value": {"tensor": {"dtype": "DT_FLOAT", "tensorShape": {"dim": [{"size": "3"}, {"size": "3"}, {"size": "1"}, {"size": "1"}]}}}, "dtype": {"type": "DT_FLOAT"}}}, {"name": "model_37/tf.nn.convolution_81/convolution/filter", "op": "Const", "attr": {"value": {"tensor": {"dtype": "DT_FLOAT", "tensorShape": {"dim": [{"size": "3"}, {"size": "3"}, {"size": "1"}, {"size": "1"}]}}}, "dtype": {"type": "DT_FLOAT"}}}, {"name": "model_37/tf.nn.convolution_82/convolution/filter", "op": "Const", "attr": {"value": {"tensor": {"dtype": "DT_FLOAT", "tensorShape": {"dim": [{"size": "3"}, {"size": "3"}, {"size": "1"}, {"size": "1"}]}}}, "dtype": {"type": "DT_FLOAT"}}}, {"name": "model_37/tf.nn.convolution_83/convolution/filter", "op": "Const", "attr": {"value": {"tensor": {"dtype": "DT_FLOAT", "tensorShape": {"dim": [{"size": "3"}, {"size": "3"}, {"size": "1"}, {"size": "1"}]}}}, "dtype": {"type": "DT_FLOAT"}}}, {"name": "model_37/tf.nn.convolution_84/convolution/filter", "op": "Const", "attr": {"value": {"tensor": {"dtype": "DT_FLOAT", "tensorShape": {"dim": [{"size": "3"}, {"size": "3"}, {"size": "1"}, {"size": "1"}]}}}, "dtype": {"type": "DT_FLOAT"}}}, {"name": "model_37/tf.nn.convolution_85/convolution/filter", "op": "Const", "attr": {"value": {"tensor": {"dtype": "DT_FLOAT", "tensorShape": {"dim": [{"size": "3"}, {"size": "3"}, {"size": "1"}, {"size": "1"}]}}}, "dtype": {"type": "DT_FLOAT"}}}, {"name": "model_37/tf.nn.convolution_86/convolution/filter", "op": "Const", "attr": {"value": {"tensor": {"dtype": "DT_FLOAT", "tensorShape": {"dim": [{"size": "3"}, {"size": "3"}, {"size": "1"}, {"size": "1"}]}}}, "dtype": {"type": "DT_FLOAT"}}}, {"name": "model_37/tf.nn.convolution_87/convolution/filter", "op": "Const", "attr": {"value": {"tensor": {"dtype": "DT_FLOAT", "tensorShape": {"dim": [{"size": "3"}, {"size": "3"}, {"size": "1"}, {"size": "1"}]}}}, "dtype": {"type": "DT_FLOAT"}}}, {"name": "model_37/tf.nn.convolution_88/convolution/filter", "op": "Const", "attr": {"value": {"tensor": {"dtype": "DT_FLOAT", "tensorShape": {"dim": [{"size": "3"}, {"size": "3"}, {"size": "1"}, {"size": "1"}]}}}, "dtype": {"type": "DT_FLOAT"}}}, {"name": "model_37/tf.nn.convolution_89/convolution/filter", "op": "Const", "attr": {"value": {"tensor": {"dtype": "DT_FLOAT", "tensorShape": {"dim": [{"size": "3"}, {"size": "3"}, {"size": "1"}, {"size": "1"}]}}}, "dtype": {"type": "DT_FLOAT"}}}, {"name": "model_37/tf.nn.convolution_90/convolution/filter", "op": "Const", "attr": {"value": {"tensor": {"dtype": "DT_FLOAT", "tensorShape": {"dim": [{"size": "3"}, {"size": "3"}, {"size": "1"}, {"size": "1"}]}}}, "dtype": {"type": "DT_FLOAT"}}}, {"name": "model_37/tf.nn.convolution_91/convolution/filter", "op": "Const", "attr": {"value": {"tensor": {"dtype": "DT_FLOAT", "tensorShape": {"dim": [{"size": "3"}, {"size": "3"}, {"size": "1"}, {"size": "1"}]}}}, "dtype": {"type": "DT_FLOAT"}}}, {"name": "model_37/tf.nn.convolution_92/convolution/filter", "op": "Const", "attr": {"value": {"tensor": {"dtype": "DT_FLOAT", "tensorShape": {"dim": [{"size": "3"}, {"size": "3"}, {"size": "1"}, {"size": "1"}]}}}, "dtype": {"type": "DT_FLOAT"}}}, {"name": "model_37/tf.nn.convolution_93/convolution/filter", "op": "Const", "attr": {"value": {"tensor": {"dtype": "DT_FLOAT", "tensorShape": {"dim": [{"size": "3"}, {"size": "3"}, {"size": "1"}, {"size": "1"}]}}}, "dtype": {"type": "DT_FLOAT"}}}, {"name": "model_37/tf.nn.convolution_94/convolution/filter", "op": "Const", "attr": {"value": {"tensor": {"dtype": "DT_FLOAT", "tensorShape": {"dim": [{"size": "3"}, {"size": "3"}, {"size": "1"}, {"size": "1"}]}}}, "dtype": {"type": "DT_FLOAT"}}}, {"name": "model_37/tf.nn.convolution_95/convolution/filter", "op": "Const", "attr": {"value": {"tensor": {"dtype": "DT_FLOAT", "tensorShape": {"dim": [{"size": "3"}, {"size": "3"}, {"size": "1"}, {"size": "1"}]}}}, "dtype": {"type": "DT_FLOAT"}}}, {"name": "model_37/tf.nn.convolution_96/convolution/filter", "op": "Const", "attr": {"value": {"tensor": {"dtype": "DT_FLOAT", "tensorShape": {"dim": [{"size": "3"}, {"size": "3"}, {"size": "1"}, {"size": "1"}]}}}, "dtype": {"type": "DT_FLOAT"}}}, {"name": "model_37/tf.nn.convolution_97/convolution/filter", "op": "Const", "attr": {"value": {"tensor": {"dtype": "DT_FLOAT", "tensorShape": {"dim": [{"size": "3"}, {"size": "3"}, {"size": "1"}, {"size": "1"}]}}}, "dtype": {"type": "DT_FLOAT"}}}, {"name": "model_37/tf.nn.convolution_98/convolution/filter", "op": "Const", "attr": {"value": {"tensor": {"dtype": "DT_FLOAT", "tensorShape": {"dim": [{"size": "3"}, {"size": "3"}, {"size": "1"}, {"size": "1"}]}}}, "dtype": {"type": "DT_FLOAT"}}}, {"name": "model_37/tf.nn.convolution_99/convolution/filter", "op": "Const", "attr": {"value": {"tensor": {"dtype": "DT_FLOAT", "tensorShape": {"dim": [{"size": "3"}, {"size": "3"}, {"size": "1"}, {"size": "1"}]}}}, "dtype": {"type": "DT_FLOAT"}}}, {"name": "model_37/tf.nn.convolution_100/convolution/filter", "op": "Const", "attr": {"value": {"tensor": {"dtype": "DT_FLOAT", "tensorShape": {"dim": [{"size": "3"}, {"size": "3"}, {"size": "1"}, {"size": "1"}]}}}, "dtype": {"type": "DT_FLOAT"}}}, {"name": "model_37/tf.nn.convolution_101/convolution/filter", "op": "Const", "attr": {"value": {"tensor": {"dtype": "DT_FLOAT", "tensorShape": {"dim": [{"size": "3"}, {"size": "3"}, {"size": "1"}, {"size": "1"}]}}}, "dtype": {"type": "DT_FLOAT"}}}, {"name": "model_37/tf.nn.convolution_102/convolution/filter", "op": "Const", "attr": {"value": {"tensor": {"dtype": "DT_FLOAT", "tensorShape": {"dim": [{"size": "3"}, {"size": "3"}, {"size": "1"}, {"size": "1"}]}}}, "dtype": {"type": "DT_FLOAT"}}}, {"name": "model_37/tf.nn.convolution_103/convolution/filter", "op": "Const", "attr": {"value": {"tensor": {"dtype": "DT_FLOAT", "tensorShape": {"dim": [{"size": "3"}, {"size": "3"}, {"size": "1"}, {"size": "1"}]}}}, "dtype": {"type": "DT_FLOAT"}}}, {"name": "model_37/tf.nn.convolution_104/convolution/filter", "op": "Const", "attr": {"value": {"tensor": {"dtype": "DT_FLOAT", "tensorShape": {"dim": [{"size": "3"}, {"size": "3"}, {"size": "1"}, {"size": "1"}]}}}, "dtype": {"type": "DT_FLOAT"}}}, {"name": "model_37/tf.nn.convolution_105/convolution/filter", "op": "Const", "attr": {"value": {"tensor": {"dtype": "DT_FLOAT", "tensorShape": {"dim": [{"size": "3"}, {"size": "3"}, {"size": "1"}, {"size": "1"}]}}}, "dtype": {"type": "DT_FLOAT"}}}, {"name": "model_37/tf.nn.convolution_106/convolution/filter", "op": "Const", "attr": {"value": {"tensor": {"dtype": "DT_FLOAT", "tensorShape": {"dim": [{"size": "3"}, {"size": "3"}, {"size": "1"}, {"size": "1"}]}}}, "dtype": {"type": "DT_FLOAT"}}}, {"name": "model_37/tf.nn.convolution_107/convolution/filter", "op": "Const", "attr": {"value": {"tensor": {"dtype": "DT_FLOAT", "tensorShape": {"dim": [{"size": "3"}, {"size": "3"}, {"size": "1"}, {"size": "1"}]}}}, "dtype": {"type": "DT_FLOAT"}}}, {"name": "model_37/tf.nn.convolution_108/convolution/filter", "op": "Const", "attr": {"value": {"tensor": {"dtype": "DT_FLOAT", "tensorShape": {"dim": [{"size": "3"}, {"size": "3"}, {"size": "1"}, {"size": "1"}]}}}, "dtype": {"type": "DT_FLOAT"}}}, {"name": "model_37/tf.nn.convolution_109/convolution/filter", "op": "Const", "attr": {"value": {"tensor": {"dtype": "DT_FLOAT", "tensorShape": {"dim": [{"size": "3"}, {"size": "3"}, {"size": "1"}, {"size": "1"}]}}}, "dtype": {"type": "DT_FLOAT"}}}, {"name": "model_37/tf.nn.convolution_110/convolution/filter", "op": "Const", "attr": {"value": {"tensor": {"dtype": "DT_FLOAT", "tensorShape": {"dim": [{"size": "3"}, {"size": "3"}, {"size": "1"}, {"size": "1"}]}}}, "dtype": {"type": "DT_FLOAT"}}}, {"name": "model_37/tf.nn.convolution_111/convolution/filter", "op": "Const", "attr": {"value": {"tensor": {"dtype": "DT_FLOAT", "tensorShape": {"dim": [{"size": "3"}, {"size": "3"}, {"size": "1"}, {"size": "1"}]}}}, "dtype": {"type": "DT_FLOAT"}}}, {"name": "model_37/tf.nn.convolution_112/convolution/filter", "op": "Const", "attr": {"value": {"tensor": {"dtype": "DT_FLOAT", "tensorShape": {"dim": [{"size": "3"}, {"size": "3"}, {"size": "1"}, {"size": "1"}]}}}, "dtype": {"type": "DT_FLOAT"}}}, {"name": "model_37/tf.nn.convolution_113/convolution/filter", "op": "Const", "attr": {"value": {"tensor": {"dtype": "DT_FLOAT", "tensorShape": {"dim": [{"size": "3"}, {"size": "3"}, {"size": "1"}, {"size": "1"}]}}}, "dtype": {"type": "DT_FLOAT"}}}, {"name": "model_37/tf.nn.convolution_114/convolution/filter", "op": "Const", "attr": {"value": {"tensor": {"dtype": "DT_FLOAT", "tensorShape": {"dim": [{"size": "3"}, {"size": "3"}, {"size": "1"}, {"size": "1"}]}}}, "dtype": {"type": "DT_FLOAT"}}}, {"name": "model_37/tf.nn.convolution_115/convolution/filter", "op": "Const", "attr": {"value": {"tensor": {"dtype": "DT_FLOAT", "tensorShape": {"dim": [{"size": "3"}, {"size": "3"}, {"size": "1"}, {"size": "1"}]}}}, "dtype": {"type": "DT_FLOAT"}}}, {"name": "model_37/tf.nn.convolution_116/convolution/filter", "op": "Const", "attr": {"value": {"tensor": {"dtype": "DT_FLOAT", "tensorShape": {"dim": [{"size": "3"}, {"size": "3"}, {"size": "1"}, {"size": "1"}]}}}, "dtype": {"type": "DT_FLOAT"}}}, {"name": "model_37/tf.nn.convolution_117/convolution/filter", "op": "Const", "attr": {"value": {"tensor": {"dtype": "DT_FLOAT", "tensorShape": {"dim": [{"size": "3"}, {"size": "3"}, {"size": "1"}, {"size": "1"}]}}}, "dtype": {"type": "DT_FLOAT"}}}, {"name": "model_37/tf.nn.convolution_118/convolution/filter", "op": "Const", "attr": {"value": {"tensor": {"dtype": "DT_FLOAT", "tensorShape": {"dim": [{"size": "3"}, {"size": "3"}, {"size": "1"}, {"size": "1"}]}}}, "dtype": {"type": "DT_FLOAT"}}}, {"name": "model_37/tf.nn.convolution_119/convolution/filter", "op": "Const", "attr": {"value": {"tensor": {"dtype": "DT_FLOAT", "tensorShape": {"dim": [{"size": "3"}, {"size": "3"}, {"size": "1"}, {"size": "1"}]}}}, "dtype": {"type": "DT_FLOAT"}}}, {"name": "model_37/tf.nn.convolution_120/convolution/filter", "op": "Const", "attr": {"value": {"tensor": {"dtype": "DT_FLOAT", "tensorShape": {"dim": [{"size": "3"}, {"size": "3"}, {"size": "1"}, {"size": "1"}]}}}, "dtype": {"type": "DT_FLOAT"}}}, {"name": "model_37/tf.nn.convolution_121/convolution/filter", "op": "Const", "attr": {"value": {"tensor": {"dtype": "DT_FLOAT", "tensorShape": {"dim": [{"size": "3"}, {"size": "3"}, {"size": "1"}, {"size": "1"}]}}}, "dtype": {"type": "DT_FLOAT"}}}, {"name": "model_37/tf.nn.convolution_122/convolution/filter", "op": "Const", "attr": {"value": {"tensor": {"dtype": "DT_FLOAT", "tensorShape": {"dim": [{"size": "3"}, {"size": "3"}, {"size": "1"}, {"size": "1"}]}}}, "dtype": {"type": "DT_FLOAT"}}}, {"name": "model_37/tf.nn.convolution_123/convolution/filter", "op": "Const", "attr": {"value": {"tensor": {"dtype": "DT_FLOAT", "tensorShape": {"dim": [{"size": "3"}, {"size": "3"}, {"size": "1"}, {"size": "1"}]}}}, "dtype": {"type": "DT_FLOAT"}}}, {"name": "model_37/tf.nn.convolution_124/convolution/filter", "op": "Const", "attr": {"value": {"tensor": {"dtype": "DT_FLOAT", "tensorShape": {"dim": [{"size": "3"}, {"size": "3"}, {"size": "1"}, {"size": "1"}]}}}, "dtype": {"type": "DT_FLOAT"}}}, {"name": "model_37/tf.nn.convolution_125/convolution/filter", "op": "Const", "attr": {"value": {"tensor": {"dtype": "DT_FLOAT", "tensorShape": {"dim": [{"size": "3"}, {"size": "3"}, {"size": "1"}, {"size": "1"}]}}}, "dtype": {"type": "DT_FLOAT"}}}, {"name": "model_37/tf.nn.convolution_126/convolution/filter", "op": "Const", "attr": {"value": {"tensor": {"dtype": "DT_FLOAT", "tensorShape": {"dim": [{"size": "3"}, {"size": "3"}, {"size": "1"}, {"size": "1"}]}}}, "dtype": {"type": "DT_FLOAT"}}}, {"name": "model_37/tf.nn.convolution_127/convolution/filter", "op": "Const", "attr": {"value": {"tensor": {"dtype": "DT_FLOAT", "tensorShape": {"dim": [{"size": "3"}, {"size": "3"}, {"size": "1"}, {"size": "1"}]}}}, "dtype": {"type": "DT_FLOAT"}}}, {"name": "model_37/tf.nn.convolution_128/convolution/filter", "op": "Const", "attr": {"value": {"tensor": {"dtype": "DT_FLOAT", "tensorShape": {"dim": [{"size": "3"}, {"size": "3"}, {"size": "1"}, {"size": "1"}]}}}, "dtype": {"type": "DT_FLOAT"}}}, {"name": "model_37/tf.nn.convolution_129/convolution/filter", "op": "Const", "attr": {"value": {"tensor": {"dtype": "DT_FLOAT", "tensorShape": {"dim": [{"size": "3"}, {"size": "3"}, {"size": "1"}, {"size": "1"}]}}}, "dtype": {"type": "DT_FLOAT"}}}, {"name": "model_37/tf.nn.convolution_130/convolution/filter", "op": "Const", "attr": {"value": {"tensor": {"dtype": "DT_FLOAT", "tensorShape": {"dim": [{"size": "3"}, {"size": "3"}, {"size": "1"}, {"size": "1"}]}}}, "dtype": {"type": "DT_FLOAT"}}}, {"name": "model_37/tf.nn.convolution_131/convolution/filter", "op": "Const", "attr": {"value": {"tensor": {"dtype": "DT_FLOAT", "tensorShape": {"dim": [{"size": "3"}, {"size": "3"}, {"size": "1"}, {"size": "1"}]}}}, "dtype": {"type": "DT_FLOAT"}}}, {"name": "model_37/tf.nn.convolution_132/convolution/filter", "op": "Const", "attr": {"value": {"tensor": {"dtype": "DT_FLOAT", "tensorShape": {"dim": [{"size": "3"}, {"size": "3"}, {"size": "1"}, {"size": "1"}]}}}, "dtype": {"type": "DT_FLOAT"}}}, {"name": "model_37/tf.nn.convolution_133/convolution/filter", "op": "Const", "attr": {"value": {"tensor": {"dtype": "DT_FLOAT", "tensorShape": {"dim": [{"size": "3"}, {"size": "3"}, {"size": "1"}, {"size": "1"}]}}}, "dtype": {"type": "DT_FLOAT"}}}, {"name": "model_37/tf.nn.convolution_134/convolution/filter", "op": "Const", "attr": {"value": {"tensor": {"dtype": "DT_FLOAT", "tensorShape": {"dim": [{"size": "3"}, {"size": "3"}, {"size": "1"}, {"size": "1"}]}}}, "dtype": {"type": "DT_FLOAT"}}}, {"name": "model_37/tf.nn.convolution_135/convolution/filter", "op": "Const", "attr": {"value": {"tensor": {"dtype": "DT_FLOAT", "tensorShape": {"dim": [{"size": "3"}, {"size": "3"}, {"size": "1"}, {"size": "1"}]}}}, "dtype": {"type": "DT_FLOAT"}}}, {"name": "model_37/tf.nn.convolution_136/convolution/filter", "op": "Const", "attr": {"value": {"tensor": {"dtype": "DT_FLOAT", "tensorShape": {"dim": [{"size": "3"}, {"size": "3"}, {"size": "1"}, {"size": "1"}]}}}, "dtype": {"type": "DT_FLOAT"}}}, {"name": "model_37/tf.nn.convolution_137/convolution/filter", "op": "Const", "attr": {"value": {"tensor": {"dtype": "DT_FLOAT", "tensorShape": {"dim": [{"size": "3"}, {"size": "3"}, {"size": "1"}, {"size": "1"}]}}}, "dtype": {"type": "DT_FLOAT"}}}, {"name": "model_37/tf.nn.convolution_138/convolution/filter", "op": "Const", "attr": {"value": {"tensor": {"dtype": "DT_FLOAT", "tensorShape": {"dim": [{"size": "3"}, {"size": "3"}, {"size": "1"}, {"size": "1"}]}}}, "dtype": {"type": "DT_FLOAT"}}}, {"name": "model_37/tf.nn.convolution_139/convolution/filter", "op": "Const", "attr": {"value": {"tensor": {"dtype": "DT_FLOAT", "tensorShape": {"dim": [{"size": "3"}, {"size": "3"}, {"size": "1"}, {"size": "1"}]}}}, "dtype": {"type": "DT_FLOAT"}}}, {"name": "model_37/tf.nn.convolution_140/convolution/filter", "op": "Const", "attr": {"value": {"tensor": {"dtype": "DT_FLOAT", "tensorShape": {"dim": [{"size": "3"}, {"size": "3"}, {"size": "1"}, {"size": "1"}]}}}, "dtype": {"type": "DT_FLOAT"}}}, {"name": "model_37/tf.nn.convolution_141/convolution/filter", "op": "Const", "attr": {"value": {"tensor": {"dtype": "DT_FLOAT", "tensorShape": {"dim": [{"size": "3"}, {"size": "3"}, {"size": "1"}, {"size": "1"}]}}}, "dtype": {"type": "DT_FLOAT"}}}, {"name": "model_37/tf.nn.convolution_142/convolution/filter", "op": "Const", "attr": {"value": {"tensor": {"dtype": "DT_FLOAT", "tensorShape": {"dim": [{"size": "3"}, {"size": "3"}, {"size": "1"}, {"size": "1"}]}}}, "dtype": {"type": "DT_FLOAT"}}}, {"name": "model_37/tf.nn.convolution_143/convolution/filter", "op": "Const", "attr": {"value": {"tensor": {"dtype": "DT_FLOAT", "tensorShape": {"dim": [{"size": "3"}, {"size": "3"}, {"size": "1"}, {"size": "1"}]}}}, "dtype": {"type": "DT_FLOAT"}}}, {"name": "model_37/tf.nn.convolution_144/convolution/filter", "op": "Const", "attr": {"value": {"tensor": {"dtype": "DT_FLOAT", "tensorShape": {"dim": [{"size": "3"}, {"size": "3"}, {"size": "1"}, {"size": "1"}]}}}, "dtype": {"type": "DT_FLOAT"}}}, {"name": "model_37/tf.nn.convolution_145/convolution/filter", "op": "Const", "attr": {"value": {"tensor": {"dtype": "DT_FLOAT", "tensorShape": {"dim": [{"size": "3"}, {"size": "3"}, {"size": "1"}, {"size": "1"}]}}}, "dtype": {"type": "DT_FLOAT"}}}, {"name": "model_37/tf.nn.convolution_146/convolution/filter", "op": "Const", "attr": {"value": {"tensor": {"dtype": "DT_FLOAT", "tensorShape": {"dim": [{"size": "3"}, {"size": "3"}, {"size": "1"}, {"size": "1"}]}}}, "dtype": {"type": "DT_FLOAT"}}}, {"name": "model_37/tf.nn.convolution_147/convolution/filter", "op": "Const", "attr": {"value": {"tensor": {"dtype": "DT_FLOAT", "tensorShape": {"dim": [{"size": "3"}, {"size": "3"}, {"size": "1"}, {"size": "1"}]}}}, "dtype": {"type": "DT_FLOAT"}}}, {"name": "model_37/tf.nn.convolution_148/convolution/filter", "op": "Const", "attr": {"value": {"tensor": {"dtype": "DT_FLOAT", "tensorShape": {"dim": [{"size": "3"}, {"size": "3"}, {"size": "1"}, {"size": "1"}]}}}, "dtype": {"type": "DT_FLOAT"}}}, {"name": "model_37/tf.nn.convolution_149/convolution/filter", "op": "Const", "attr": {"value": {"tensor": {"dtype": "DT_FLOAT", "tensorShape": {"dim": [{"size": "3"}, {"size": "3"}, {"size": "1"}, {"size": "1"}]}}}, "dtype": {"type": "DT_FLOAT"}}}, {"name": "model_37/tf.nn.convolution_150/convolution/filter", "op": "Const", "attr": {"value": {"tensor": {"dtype": "DT_FLOAT", "tensorShape": {"dim": [{"size": "3"}, {"size": "3"}, {"size": "1"}, {"size": "1"}]}}}, "dtype": {"type": "DT_FLOAT"}}}, {"name": "model_37/tf.nn.convolution_151/convolution/filter", "op": "Const", "attr": {"value": {"tensor": {"dtype": "DT_FLOAT", "tensorShape": {"dim": [{"size": "3"}, {"size": "3"}, {"size": "1"}, {"size": "1"}]}}}, "dtype": {"type": "DT_FLOAT"}}}, {"name": "model_37/tf.nn.convolution_152/convolution/filter", "op": "Const", "attr": {"value": {"tensor": {"dtype": "DT_FLOAT", "tensorShape": {"dim": [{"size": "3"}, {"size": "3"}, {"size": "1"}, {"size": "1"}]}}}, "dtype": {"type": "DT_FLOAT"}}}, {"name": "model_37/tf.nn.convolution_153/convolution/filter", "op": "Const", "attr": {"value": {"tensor": {"dtype": "DT_FLOAT", "tensorShape": {"dim": [{"size": "3"}, {"size": "3"}, {"size": "1"}, {"size": "1"}]}}}, "dtype": {"type": "DT_FLOAT"}}}, {"name": "model_37/tf.nn.convolution_154/convolution/filter", "op": "Const", "attr": {"value": {"tensor": {"dtype": "DT_FLOAT", "tensorShape": {"dim": [{"size": "3"}, {"size": "3"}, {"size": "1"}, {"size": "1"}]}}}, "dtype": {"type": "DT_FLOAT"}}}, {"name": "model_37/tf.nn.convolution_155/convolution/filter", "op": "Const", "attr": {"value": {"tensor": {"dtype": "DT_FLOAT", "tensorShape": {"dim": [{"size": "3"}, {"size": "3"}, {"size": "1"}, {"size": "1"}]}}}, "dtype": {"type": "DT_FLOAT"}}}, {"name": "model_37/tf.nn.convolution_156/convolution/filter", "op": "Const", "attr": {"value": {"tensor": {"dtype": "DT_FLOAT", "tensorShape": {"dim": [{"size": "3"}, {"size": "3"}, {"size": "1"}, {"size": "1"}]}}}, "dtype": {"type": "DT_FLOAT"}}}, {"name": "model_37/tf.nn.convolution_157/convolution/filter", "op": "Const", "attr": {"value": {"tensor": {"dtype": "DT_FLOAT", "tensorShape": {"dim": [{"size": "3"}, {"size": "3"}, {"size": "1"}, {"size": "1"}]}}}, "dtype": {"type": "DT_FLOAT"}}}, {"name": "model_37/tf.nn.convolution_158/convolution/filter", "op": "Const", "attr": {"value": {"tensor": {"dtype": "DT_FLOAT", "tensorShape": {"dim": [{"size": "3"}, {"size": "3"}, {"size": "1"}, {"size": "1"}]}}}, "dtype": {"type": "DT_FLOAT"}}}, {"name": "model_37/tf.nn.convolution_159/convolution/filter", "op": "Const", "attr": {"value": {"tensor": {"dtype": "DT_FLOAT", "tensorShape": {"dim": [{"size": "3"}, {"size": "3"}, {"size": "1"}, {"size": "1"}]}}}, "dtype": {"type": "DT_FLOAT"}}}, {"name": "model_37/tf.nn.convolution_160/convolution/filter", "op": "Const", "attr": {"value": {"tensor": {"dtype": "DT_FLOAT", "tensorShape": {"dim": [{"size": "3"}, {"size": "3"}, {"size": "1"}, {"size": "1"}]}}}, "dtype": {"type": "DT_FLOAT"}}}, {"name": "model_37/tf.nn.convolution_161/convolution/filter", "op": "Const", "attr": {"value": {"tensor": {"dtype": "DT_FLOAT", "tensorShape": {"dim": [{"size": "3"}, {"size": "3"}, {"size": "1"}, {"size": "1"}]}}}, "dtype": {"type": "DT_FLOAT"}}}, {"name": "model_37/tf.split_2/split/split_dim", "op": "Const", "attr": {"value": {"tensor": {"dtype": "DT_INT32", "tensorShape": {}}}, "dtype": {"type": "DT_INT32"}}}, {"name": "model_37/tf.strided_slice_6/ones_like/tensor", "op": "Const", "attr": {"value": {"tensor": {"dtype": "DT_INT64", "tensorShape": {"dim": [{"size": "4"}]}}}, "dtype": {"type": "DT_INT64"}}}, {"name": "model_37/tf.strided_slice_6/StridedSlice/end", "op": "Const", "attr": {"value": {"tensor": {"dtype": "DT_INT64", "tensorShape": {"dim": [{"size": "4"}]}}}, "dtype": {"type": "DT_INT64"}}}, {"name": "model_37/tf.strided_slice_6/ones_like", "op": "Const", "attr": {"value": {"tensor": {"dtype": "DT_INT64", "tensorShape": {"dim": [{"size": "4"}]}}}, "dtype": {"type": "DT_INT64"}}}, {"name": "model_37/tf.nn.convolution_23/convolution/filter", "op": "Const", "attr": {"value": {"tensor": {"dtype": "DT_FLOAT", "tensorShape": {"dim": [{"size": "1"}, {"size": "1"}, {"size": "128"}, {"size": "64"}]}}}, "dtype": {"type": "DT_FLOAT"}}}, {"name": "model_37/tf.math.add_31/Add/y", "op": "Const", "attr": {"value": {"tensor": {"dtype": "DT_FLOAT", "tensorShape": {"dim": [{"size": "64"}]}}}, "dtype": {"type": "DT_FLOAT"}}}, {"name": "model_37/tf.nn.convolution_25/convolution/filter", "op": "Const", "attr": {"value": {"tensor": {"dtype": "DT_FLOAT", "tensorShape": {"dim": [{"size": "3"}, {"size": "3"}, {"size": "64"}, {"size": "64"}]}}}, "dtype": {"type": "DT_FLOAT"}}}, {"name": "model_37/tf.math.add_33/Add/y", "op": "Const", "attr": {"value": {"tensor": {"dtype": "DT_FLOAT", "tensorShape": {"dim": [{"size": "64"}]}}}, "dtype": {"type": "DT_FLOAT"}}}, {"name": "model_37/tf.nn.convolution_26/convolution/filter", "op": "Const", "attr": {"value": {"tensor": {"dtype": "DT_FLOAT", "tensorShape": {"dim": [{"size": "3"}, {"size": "3"}, {"size": "64"}, {"size": "64"}]}}}, "dtype": {"type": "DT_FLOAT"}}}, {"name": "model_37/tf.math.add_34/Add/y", "op": "Const", "attr": {"value": {"tensor": {"dtype": "DT_FLOAT", "tensorShape": {"dim": [{"size": "64"}]}}}, "dtype": {"type": "DT_FLOAT"}}}, {"name": "model_37/tf.nn.convolution_27/convolution/filter", "op": "Const", "attr": {"value": {"tensor": {"dtype": "DT_FLOAT", "tensorShape": {"dim": [{"size": "3"}, {"size": "3"}, {"size": "64"}, {"size": "64"}]}}}, "dtype": {"type": "DT_FLOAT"}}}, {"name": "model_37/tf.math.add_37/Add/y", "op": "Const", "attr": {"value": {"tensor": {"dtype": "DT_FLOAT", "tensorShape": {"dim": [{"size": "64"}]}}}, "dtype": {"type": "DT_FLOAT"}}}, {"name": "model_37/tf.nn.convolution_28/convolution/filter", "op": "Const", "attr": {"value": {"tensor": {"dtype": "DT_FLOAT", "tensorShape": {"dim": [{"size": "3"}, {"size": "3"}, {"size": "64"}, {"size": "64"}]}}}, "dtype": {"type": "DT_FLOAT"}}}, {"name": "model_37/tf.math.add_38/Add/y", "op": "Const", "attr": {"value": {"tensor": {"dtype": "DT_FLOAT", "tensorShape": {"dim": [{"size": "64"}]}}}, "dtype": {"type": "DT_FLOAT"}}}, {"name": "model_37/tf.compat.v1.pad_4/Pad/paddings", "op": "Const", "attr": {"value": {"tensor": {"dtype": "DT_INT32", "tensorShape": {"dim": [{"size": "4"}, {"size": "2"}]}}}, "dtype": {"type": "DT_INT32"}}}, {"name": "model_37/tf.nn.convolution_21/convolution/filter", "op": "Const", "attr": {"value": {"tensor": {"dtype": "DT_FLOAT", "tensorShape": {"dim": [{"size": "3"}, {"size": "3"}, {"size": "128"}, {"size": "256"}]}}}, "dtype": {"type": "DT_FLOAT"}}}, {"name": "model_37/tf.math.add_29/Add/y", "op": "Const", "attr": {"value": {"tensor": {"dtype": "DT_FLOAT", "tensorShape": {"dim": [{"size": "256"}]}}}, "dtype": {"type": "DT_FLOAT"}}}, {"name": "model_37/tf.nn.convolution_22/convolution/filter", "op": "Const", "attr": {"value": {"tensor": {"dtype": "DT_FLOAT", "tensorShape": {"dim": [{"size": "1"}, {"size": "1"}, {"size": "256"}, {"size": "256"}]}}}, "dtype": {"type": "DT_FLOAT"}}}, {"name": "model_37/tf.math.add_30/Add/y", "op": "Const", "attr": {"value": {"tensor": {"dtype": "DT_FLOAT", "tensorShape": {"dim": [{"size": "256"}]}}}, "dtype": {"type": "DT_FLOAT"}}}, {"name": "model_37/tf.strided_slice_7/ones_like/tensor", "op": "Const", "attr": {"value": {"tensor": {"dtype": "DT_INT64", "tensorShape": {"dim": [{"size": "4"}]}}}, "dtype": {"type": "DT_INT64"}}}, {"name": "model_37/tf.strided_slice_7/StridedSlice/end", "op": "Const", "attr": {"value": {"tensor": {"dtype": "DT_INT64", "tensorShape": {"dim": [{"size": "4"}]}}}, "dtype": {"type": "DT_INT64"}}}, {"name": "model_37/tf.strided_slice_7/ones_like", "op": "Const", "attr": {"value": {"tensor": {"dtype": "DT_INT64", "tensorShape": {"dim": [{"size": "4"}]}}}, "dtype": {"type": "DT_INT64"}}}, {"name": "model_37/tf.nn.convolution_24/convolution/filter", "op": "Const", "attr": {"value": {"tensor": {"dtype": "DT_FLOAT", "tensorShape": {"dim": [{"size": "1"}, {"size": "1"}, {"size": "128"}, {"size": "64"}]}}}, "dtype": {"type": "DT_FLOAT"}}}, {"name": "model_37/tf.math.add_32/Add/y", "op": "Const", "attr": {"value": {"tensor": {"dtype": "DT_FLOAT", "tensorShape": {"dim": [{"size": "64"}]}}}, "dtype": {"type": "DT_FLOAT"}}}, {"name": "model_37/tf.concat_4/concat/axis", "op": "Const", "attr": {"value": {"tensor": {"dtype": "DT_INT32", "tensorShape": {}}}, "dtype": {"type": "DT_INT32"}}}, {"name": "model_37/tf.nn.convolution_29/convolution/filter", "op": "Const", "attr": {"value": {"tensor": {"dtype": "DT_FLOAT", "tensorShape": {"dim": [{"size": "1"}, {"size": "1"}, {"size": "128"}, {"size": "128"}]}}}, "dtype": {"type": "DT_FLOAT"}}}, {"name": "model_37/tf.math.add_41/Add/y", "op": "Const", "attr": {"value": {"tensor": {"dtype": "DT_FLOAT", "tensorShape": {"dim": [{"size": "128"}]}}}, "dtype": {"type": "DT_FLOAT"}}}, {"name": "model_37/tf.concat_5/concat/axis", "op": "Const", "attr": {"value": {"tensor": {"dtype": "DT_INT32", "tensorShape": {}}}, "dtype": {"type": "DT_INT32"}}}, {"name": "model_37/tf.nn.convolution_30/convolution/filter", "op": "Const", "attr": {"value": {"tensor": {"dtype": "DT_FLOAT", "tensorShape": {"dim": [{"size": "1"}, {"size": "1"}, {"size": "384"}, {"size": "256"}]}}}, "dtype": {"type": "DT_FLOAT"}}}, {"name": "model_37/tf.math.add_42/Add/y", "op": "Const", "attr": {"value": {"tensor": {"dtype": "DT_FLOAT", "tensorShape": {"dim": [{"size": "256"}]}}}, "dtype": {"type": "DT_FLOAT"}}}, {"name": "model_37/tf.nn.convolution_31/convolution/filter", "op": "Const", "attr": {"value": {"tensor": {"dtype": "DT_FLOAT", "tensorShape": {"dim": [{"size": "1"}, {"size": "1"}, {"size": "256"}, {"size": "128"}]}}}, "dtype": {"type": "DT_FLOAT"}}}, {"name": "model_37/tf.math.add_43/Add/y", "op": "Const", "attr": {"value": {"tensor": {"dtype": "DT_FLOAT", "tensorShape": {"dim": [{"size": "128"}]}}}, "dtype": {"type": "DT_FLOAT"}}}, {"name": "model_37/tf.concat_6/concat/axis", "op": "Const", "attr": {"value": {"tensor": {"dtype": "DT_INT32", "tensorShape": {}}}, "dtype": {"type": "DT_INT32"}}}, {"name": "model_37/tf.nn.convolution_32/convolution/filter", "op": "Const", "attr": {"value": {"tensor": {"dtype": "DT_FLOAT", "tensorShape": {"dim": [{"size": "1"}, {"size": "1"}, {"size": "512"}, {"size": "256"}]}}}, "dtype": {"type": "DT_FLOAT"}}}, {"name": "model_37/tf.math.add_44/Add/y", "op": "Const", "attr": {"value": {"tensor": {"dtype": "DT_FLOAT", "tensorShape": {"dim": [{"size": "256"}]}}}, "dtype": {"type": "DT_FLOAT"}}}, {"name": "model_37/tf.nn.convolution_33/convolution/filter", "op": "Const", "attr": {"value": {"tensor": {"dtype": "DT_FLOAT", "tensorShape": {"dim": [{"size": "1"}, {"size": "1"}, {"size": "256"}, {"size": "256"}]}}}, "dtype": {"type": "DT_FLOAT"}}}, {"name": "model_37/tf.math.add_45/Add/y", "op": "Const", "attr": {"value": {"tensor": {"dtype": "DT_FLOAT", "tensorShape": {"dim": [{"size": "256"}]}}}, "dtype": {"type": "DT_FLOAT"}}}, {"name": "model_37/tf.split/Const", "op": "Const", "attr": {"value": {"tensor": {"dtype": "DT_INT32", "tensorShape": {"dim": [{"size": "2"}]}}}, "dtype": {"type": "DT_INT32"}}}, {"name": "model_37/tf.split/split/split_dim", "op": "Const", "attr": {"value": {"tensor": {"dtype": "DT_INT32", "tensorShape": {}}}, "dtype": {"type": "DT_INT32"}}}, {"name": "model_37/tf.nn.convolution_34/convolution/filter", "op": "Const", "attr": {"value": {"tensor": {"dtype": "DT_FLOAT", "tensorShape": {"dim": [{"size": "1"}, {"size": "1"}, {"size": "128"}, {"size": "256"}]}}}, "dtype": {"type": "DT_FLOAT"}}}, {"name": "model_37/tf.math.add_46/Add/y", "op": "Const", "attr": {"value": {"tensor": {"dtype": "DT_FLOAT", "tensorShape": {"dim": [{"size": "256"}]}}}, "dtype": {"type": "DT_FLOAT"}}}, {"name": "model_37/tf.compat.v1.transpose_42/transpose/perm", "op": "Const", "attr": {"value": {"tensor": {"dtype": "DT_INT32", "tensorShape": {"dim": [{"size": "4"}]}}}, "dtype": {"type": "DT_INT32"}}}, {"name": "model_37/tf.reshape_2/Reshape/shape", "op": "Const", "attr": {"value": {"tensor": {"dtype": "DT_INT32", "tensorShape": {"dim": [{"size": "4"}]}}}, "dtype": {"type": "DT_INT32"}}}, {"name": "model_37/tf.split_1/Const", "op": "Const", "attr": {"value": {"tensor": {"dtype": "DT_INT32", "tensorShape": {"dim": [{"size": "3"}]}}}, "dtype": {"type": "DT_INT32"}}}, {"name": "model_37/tf.split_1/split/split_dim", "op": "Const", "attr": {"value": {"tensor": {"dtype": "DT_INT32", "tensorShape": {}}}, "dtype": {"type": "DT_INT32"}}}, {"name": "model_37/tf.reshape_5/Reshape/shape", "op": "Const", "attr": {"value": {"tensor": {"dtype": "DT_INT32", "tensorShape": {"dim": [{"size": "4"}]}}}, "dtype": {"type": "DT_INT32"}}}, {"name": "model_37/tf.compat.v1.transpose_58/transpose/perm", "op": "Const", "attr": {"value": {"tensor": {"dtype": "DT_INT32", "tensorShape": {"dim": [{"size": "4"}]}}}, "dtype": {"type": "DT_INT32"}}}, {"name": "model_37/tf.nn.convolution_162/convolution/filter", "op": "Const", "attr": {"value": {"tensor": {"dtype": "DT_FLOAT", "tensorShape": {"dim": [{"size": "3"}, {"size": "3"}, {"size": "1"}, {"size": "1"}]}}}, "dtype": {"type": "DT_FLOAT"}}}, {"name": "model_37/tf.concat_7/concat/axis", "op": "Const", "attr": {"value": {"tensor": {"dtype": "DT_INT32", "tensorShape": {}}}, "dtype": {"type": "DT_INT32"}}}, {"name": "model_37/tf.nn.convolution_163/convolution/filter", "op": "Const", "attr": {"value": {"tensor": {"dtype": "DT_FLOAT", "tensorShape": {"dim": [{"size": "1"}, {"size": "1"}, {"size": "128"}, {"size": "128"}]}}}, "dtype": {"type": "DT_FLOAT"}}}, {"name": "model_37/tf.nn.convolution_164/convolution/filter", "op": "Const", "attr": {"value": {"tensor": {"dtype": "DT_FLOAT", "tensorShape": {"dim": [{"size": "1"}, {"size": "1"}, {"size": "128"}, {"size": "256"}]}}}, "dtype": {"type": "DT_FLOAT"}}}, {"name": "model_37/tf.math.add_53/Add/y", "op": "Const", "attr": {"value": {"tensor": {"dtype": "DT_FLOAT", "tensorShape": {"dim": [{"size": "256"}]}}}, "dtype": {"type": "DT_FLOAT"}}}, {"name": "model_37/tf.nn.convolution_165/convolution/filter", "op": "Const", "attr": {"value": {"tensor": {"dtype": "DT_FLOAT", "tensorShape": {"dim": [{"size": "1"}, {"size": "1"}, {"size": "256"}, {"size": "128"}]}}}, "dtype": {"type": "DT_FLOAT"}}}, {"name": "model_37/tf.concat_8/concat/axis", "op": "Const", "attr": {"value": {"tensor": {"dtype": "DT_INT32", "tensorShape": {}}}, "dtype": {"type": "DT_INT32"}}}, {"name": "model_37/tf.nn.convolution_166/convolution/filter", "op": "Const", "attr": {"value": {"tensor": {"dtype": "DT_FLOAT", "tensorShape": {"dim": [{"size": "1"}, {"size": "1"}, {"size": "256"}, {"size": "256"}]}}}, "dtype": {"type": "DT_FLOAT"}}}, {"name": "model_37/tf.math.add_57/Add/y", "op": "Const", "attr": {"value": {"tensor": {"dtype": "DT_FLOAT", "tensorShape": {"dim": [{"size": "256"}]}}}, "dtype": {"type": "DT_FLOAT"}}}, {"name": "model_37/tf.compat.v1.image.resize_nearest_neighbor/ResizeNearestNeighbor/size", "op": "Const", "attr": {"value": {"tensor": {"dtype": "DT_INT32", "tensorShape": {"dim": [{"size": "2"}]}}}, "dtype": {"type": "DT_INT32"}}}, {"name": "model_37/tf.strided_slice_4/ones_like/tensor", "op": "Const", "attr": {"value": {"tensor": {"dtype": "DT_INT64", "tensorShape": {"dim": [{"size": "4"}]}}}, "dtype": {"type": "DT_INT64"}}}, {"name": "model_37/tf.strided_slice_4/StridedSlice/end", "op": "Const", "attr": {"value": {"tensor": {"dtype": "DT_INT64", "tensorShape": {"dim": [{"size": "4"}]}}}, "dtype": {"type": "DT_INT64"}}}, {"name": "model_37/tf.strided_slice_4/ones_like", "op": "Const", "attr": {"value": {"tensor": {"dtype": "DT_INT64", "tensorShape": {"dim": [{"size": "4"}]}}}, "dtype": {"type": "DT_INT64"}}}, {"name": "model_37/tf.nn.convolution_13/convolution/filter", "op": "Const", "attr": {"value": {"tensor": {"dtype": "DT_FLOAT", "tensorShape": {"dim": [{"size": "1"}, {"size": "1"}, {"size": "64"}, {"size": "32"}]}}}, "dtype": {"type": "DT_FLOAT"}}}, {"name": "model_37/tf.math.add_17/Add/y", "op": "Const", "attr": {"value": {"tensor": {"dtype": "DT_FLOAT", "tensorShape": {"dim": [{"size": "32"}]}}}, "dtype": {"type": "DT_FLOAT"}}}, {"name": "model_37/tf.nn.convolution_15/convolution/filter", "op": "Const", "attr": {"value": {"tensor": {"dtype": "DT_FLOAT", "tensorShape": {"dim": [{"size": "3"}, {"size": "3"}, {"size": "32"}, {"size": "32"}]}}}, "dtype": {"type": "DT_FLOAT"}}}, {"name": "model_37/tf.math.add_19/Add/y", "op": "Const", "attr": {"value": {"tensor": {"dtype": "DT_FLOAT", "tensorShape": {"dim": [{"size": "32"}]}}}, "dtype": {"type": "DT_FLOAT"}}}, {"name": "model_37/tf.nn.convolution_16/convolution/filter", "op": "Const", "attr": {"value": {"tensor": {"dtype": "DT_FLOAT", "tensorShape": {"dim": [{"size": "3"}, {"size": "3"}, {"size": "32"}, {"size": "32"}]}}}, "dtype": {"type": "DT_FLOAT"}}}, {"name": "model_37/tf.math.add_20/Add/y", "op": "Const", "attr": {"value": {"tensor": {"dtype": "DT_FLOAT", "tensorShape": {"dim": [{"size": "32"}]}}}, "dtype": {"type": "DT_FLOAT"}}}, {"name": "model_37/tf.nn.convolution_17/convolution/filter", "op": "Const", "attr": {"value": {"tensor": {"dtype": "DT_FLOAT", "tensorShape": {"dim": [{"size": "3"}, {"size": "3"}, {"size": "32"}, {"size": "32"}]}}}, "dtype": {"type": "DT_FLOAT"}}}, {"name": "model_37/tf.math.add_23/Add/y", "op": "Const", "attr": {"value": {"tensor": {"dtype": "DT_FLOAT", "tensorShape": {"dim": [{"size": "32"}]}}}, "dtype": {"type": "DT_FLOAT"}}}, {"name": "model_37/tf.nn.convolution_18/convolution/filter", "op": "Const", "attr": {"value": {"tensor": {"dtype": "DT_FLOAT", "tensorShape": {"dim": [{"size": "3"}, {"size": "3"}, {"size": "32"}, {"size": "32"}]}}}, "dtype": {"type": "DT_FLOAT"}}}, {"name": "model_37/tf.math.add_24/Add/y", "op": "Const", "attr": {"value": {"tensor": {"dtype": "DT_FLOAT", "tensorShape": {"dim": [{"size": "32"}]}}}, "dtype": {"type": "DT_FLOAT"}}}, {"name": "model_37/tf.compat.v1.pad_3/Pad/paddings", "op": "Const", "attr": {"value": {"tensor": {"dtype": "DT_INT32", "tensorShape": {"dim": [{"size": "4"}, {"size": "2"}]}}}, "dtype": {"type": "DT_INT32"}}}, {"name": "model_37/tf.nn.convolution_11/convolution/filter", "op": "Const", "attr": {"value": {"tensor": {"dtype": "DT_FLOAT", "tensorShape": {"dim": [{"size": "3"}, {"size": "3"}, {"size": "128"}, {"size": "128"}]}}}, "dtype": {"type": "DT_FLOAT"}}}, {"name": "model_37/tf.math.add_15/Add/y", "op": "Const", "attr": {"value": {"tensor": {"dtype": "DT_FLOAT", "tensorShape": {"dim": [{"size": "128"}]}}}, "dtype": {"type": "DT_FLOAT"}}}, {"name": "model_37/tf.nn.convolution_12/convolution/filter", "op": "Const", "attr": {"value": {"tensor": {"dtype": "DT_FLOAT", "tensorShape": {"dim": [{"size": "1"}, {"size": "1"}, {"size": "128"}, {"size": "128"}]}}}, "dtype": {"type": "DT_FLOAT"}}}, {"name": "model_37/tf.math.add_16/Add/y", "op": "Const", "attr": {"value": {"tensor": {"dtype": "DT_FLOAT", "tensorShape": {"dim": [{"size": "128"}]}}}, "dtype": {"type": "DT_FLOAT"}}}, {"name": "model_37/tf.strided_slice_5/ones_like/tensor", "op": "Const", "attr": {"value": {"tensor": {"dtype": "DT_INT64", "tensorShape": {"dim": [{"size": "4"}]}}}, "dtype": {"type": "DT_INT64"}}}, {"name": "model_37/tf.strided_slice_5/StridedSlice/end", "op": "Const", "attr": {"value": {"tensor": {"dtype": "DT_INT64", "tensorShape": {"dim": [{"size": "4"}]}}}, "dtype": {"type": "DT_INT64"}}}, {"name": "model_37/tf.strided_slice_5/ones_like", "op": "Const", "attr": {"value": {"tensor": {"dtype": "DT_INT64", "tensorShape": {"dim": [{"size": "4"}]}}}, "dtype": {"type": "DT_INT64"}}}, {"name": "model_37/tf.nn.convolution_14/convolution/filter", "op": "Const", "attr": {"value": {"tensor": {"dtype": "DT_FLOAT", "tensorShape": {"dim": [{"size": "1"}, {"size": "1"}, {"size": "64"}, {"size": "32"}]}}}, "dtype": {"type": "DT_FLOAT"}}}, {"name": "model_37/tf.math.add_18/Add/y", "op": "Const", "attr": {"value": {"tensor": {"dtype": "DT_FLOAT", "tensorShape": {"dim": [{"size": "32"}]}}}, "dtype": {"type": "DT_FLOAT"}}}, {"name": "model_37/tf.concat_2/concat/axis", "op": "Const", "attr": {"value": {"tensor": {"dtype": "DT_INT32", "tensorShape": {}}}, "dtype": {"type": "DT_INT32"}}}, {"name": "model_37/tf.nn.convolution_19/convolution/filter", "op": "Const", "attr": {"value": {"tensor": {"dtype": "DT_FLOAT", "tensorShape": {"dim": [{"size": "1"}, {"size": "1"}, {"size": "64"}, {"size": "64"}]}}}, "dtype": {"type": "DT_FLOAT"}}}, {"name": "model_37/tf.math.add_27/Add/y", "op": "Const", "attr": {"value": {"tensor": {"dtype": "DT_FLOAT", "tensorShape": {"dim": [{"size": "64"}]}}}, "dtype": {"type": "DT_FLOAT"}}}, {"name": "model_37/tf.concat_3/concat/axis", "op": "Const", "attr": {"value": {"tensor": {"dtype": "DT_INT32", "tensorShape": {}}}, "dtype": {"type": "DT_INT32"}}}, {"name": "model_37/tf.nn.convolution_20/convolution/filter", "op": "Const", "attr": {"value": {"tensor": {"dtype": "DT_FLOAT", "tensorShape": {"dim": [{"size": "1"}, {"size": "1"}, {"size": "192"}, {"size": "128"}]}}}, "dtype": {"type": "DT_FLOAT"}}}, {"name": "model_37/tf.math.add_28/Add/y", "op": "Const", "attr": {"value": {"tensor": {"dtype": "DT_FLOAT", "tensorShape": {"dim": [{"size": "128"}]}}}, "dtype": {"type": "DT_FLOAT"}}}, {"name": "model_37/tf.concat_9/concat/axis", "op": "Const", "attr": {"value": {"tensor": {"dtype": "DT_INT32", "tensorShape": {}}}, "dtype": {"type": "DT_INT32"}}}, {"name": "model_37/tf.nn.convolution_167/convolution/filter", "op": "Const", "attr": {"value": {"tensor": {"dtype": "DT_FLOAT", "tensorShape": {"dim": [{"size": "1"}, {"size": "1"}, {"size": "384"}, {"size": "128"}]}}}, "dtype": {"type": "DT_FLOAT"}}}, {"name": "model_37/tf.math.add_58/Add/y", "op": "Const", "attr": {"value": {"tensor": {"dtype": "DT_FLOAT", "tensorShape": {"dim": [{"size": "128"}]}}}, "dtype": {"type": "DT_FLOAT"}}}, {"name": "model_37/tf.strided_slice_9/ones_like/tensor", "op": "Const", "attr": {"value": {"tensor": {"dtype": "DT_INT64", "tensorShape": {"dim": [{"size": "4"}]}}}, "dtype": {"type": "DT_INT64"}}}, {"name": "model_37/tf.strided_slice_9/StridedSlice/end", "op": "Const", "attr": {"value": {"tensor": {"dtype": "DT_INT64", "tensorShape": {"dim": [{"size": "4"}]}}}, "dtype": {"type": "DT_INT64"}}}, {"name": "model_37/tf.strided_slice_9/ones_like", "op": "Const", "attr": {"value": {"tensor": {"dtype": "DT_INT64", "tensorShape": {"dim": [{"size": "4"}]}}}, "dtype": {"type": "DT_INT64"}}}, {"name": "model_37/tf.nn.convolution_168/convolution/filter", "op": "Const", "attr": {"value": {"tensor": {"dtype": "DT_FLOAT", "tensorShape": {"dim": [{"size": "3"}, {"size": "3"}, {"size": "64"}, {"size": "32"}]}}}, "dtype": {"type": "DT_FLOAT"}}}, {"name": "model_37/tf.math.add_59/Add/y", "op": "Const", "attr": {"value": {"tensor": {"dtype": "DT_FLOAT", "tensorShape": {"dim": [{"size": "32"}]}}}, "dtype": {"type": "DT_FLOAT"}}}, {"name": "model_37/tf.nn.convolution_169/convolution/filter", "op": "Const", "attr": {"value": {"tensor": {"dtype": "DT_FLOAT", "tensorShape": {"dim": [{"size": "3"}, {"size": "3"}, {"size": "32"}, {"size": "64"}]}}}, "dtype": {"type": "DT_FLOAT"}}}, {"name": "model_37/tf.math.add_60/Add/y", "op": "Const", "attr": {"value": {"tensor": {"dtype": "DT_FLOAT", "tensorShape": {"dim": [{"size": "64"}]}}}, "dtype": {"type": "DT_FLOAT"}}}, {"name": "model_37/tf.concat_10/concat/axis", "op": "Const", "attr": {"value": {"tensor": {"dtype": "DT_INT32", "tensorShape": {}}}, "dtype": {"type": "DT_INT32"}}}, {"name": "model_37/tf.nn.convolution_170/convolution/filter", "op": "Const", "attr": {"value": {"tensor": {"dtype": "DT_FLOAT", "tensorShape": {"dim": [{"size": "1"}, {"size": "1"}, {"size": "192"}, {"size": "128"}]}}}, "dtype": {"type": "DT_FLOAT"}}}, {"name": "model_37/tf.math.add_63/Add/y", "op": "Const", "attr": {"value": {"tensor": {"dtype": "DT_FLOAT", "tensorShape": {"dim": [{"size": "128"}]}}}, "dtype": {"type": "DT_FLOAT"}}}, {"name": "model_37/tf.compat.v1.image.resize_nearest_neighbor_1/ResizeNearestNeighbor/size", "op": "Const", "attr": {"value": {"tensor": {"dtype": "DT_INT32", "tensorShape": {"dim": [{"size": "2"}]}}}, "dtype": {"type": "DT_INT32"}}}, {"name": "model_37/tf.strided_slice_2/ones_like/tensor", "op": "Const", "attr": {"value": {"tensor": {"dtype": "DT_INT64", "tensorShape": {"dim": [{"size": "4"}]}}}, "dtype": {"type": "DT_INT64"}}}, {"name": "model_37/tf.strided_slice_2/StridedSlice/end", "op": "Const", "attr": {"value": {"tensor": {"dtype": "DT_INT64", "tensorShape": {"dim": [{"size": "4"}]}}}, "dtype": {"type": "DT_INT64"}}}, {"name": "model_37/tf.strided_slice_2/ones_like", "op": "Const", "attr": {"value": {"tensor": {"dtype": "DT_INT64", "tensorShape": {"dim": [{"size": "4"}]}}}, "dtype": {"type": "DT_INT64"}}}, {"name": "model_37/tf.strided_slice/ones_like/tensor", "op": "Const", "attr": {"value": {"tensor": {"dtype": "DT_INT64", "tensorShape": {"dim": [{"size": "4"}]}}}, "dtype": {"type": "DT_INT64"}}}, {"name": "model_37/tf.strided_slice/StridedSlice/end", "op": "Const", "attr": {"value": {"tensor": {"dtype": "DT_INT64", "tensorShape": {"dim": [{"size": "4"}]}}}, "dtype": {"type": "DT_INT64"}}}, {"name": "model_37/tf.strided_slice/ones_like", "op": "Const", "attr": {"value": {"tensor": {"dtype": "DT_INT64", "tensorShape": {"dim": [{"size": "4"}]}}}, "dtype": {"type": "DT_INT64"}}}, {"name": "model_37/tf.compat.v1.pad/Pad/paddings", "op": "Const", "attr": {"value": {"tensor": {"dtype": "DT_INT32", "tensorShape": {"dim": [{"size": "4"}, {"size": "2"}]}}}, "dtype": {"type": "DT_INT32"}}}, {"name": "model_37/tf.nn.convolution/convolution/filter", "op": "Const", "attr": {"value": {"tensor": {"dtype": "DT_FLOAT", "tensorShape": {"dim": [{"size": "3"}, {"size": "3"}, {"size": "3"}, {"size": "16"}]}}}, "dtype": {"type": "DT_FLOAT"}}}, {"name": "model_37/tf.math.add/Add/y", "op": "Const", "attr": {"value": {"tensor": {"dtype": "DT_FLOAT", "tensorShape": {"dim": [{"size": "16"}]}}}, "dtype": {"type": "DT_FLOAT"}}}, {"name": "model_37/tf.compat.v1.pad_1/Pad/paddings", "op": "Const", "attr": {"value": {"tensor": {"dtype": "DT_INT32", "tensorShape": {"dim": [{"size": "4"}, {"size": "2"}]}}}, "dtype": {"type": "DT_INT32"}}}, {"name": "model_37/tf.nn.convolution_1/convolution/filter", "op": "Const", "attr": {"value": {"tensor": {"dtype": "DT_FLOAT", "tensorShape": {"dim": [{"size": "3"}, {"size": "3"}, {"size": "16"}, {"size": "32"}]}}}, "dtype": {"type": "DT_FLOAT"}}}, {"name": "model_37/tf.math.add_1/Add/y", "op": "Const", "attr": {"value": {"tensor": {"dtype": "DT_FLOAT", "tensorShape": {"dim": [{"size": "32"}]}}}, "dtype": {"type": "DT_FLOAT"}}}, {"name": "model_37/tf.nn.convolution_2/convolution/filter", "op": "Const", "attr": {"value": {"tensor": {"dtype": "DT_FLOAT", "tensorShape": {"dim": [{"size": "1"}, {"size": "1"}, {"size": "32"}, {"size": "32"}]}}}, "dtype": {"type": "DT_FLOAT"}}}, {"name": "model_37/tf.math.add_2/Add/y", "op": "Const", "attr": {"value": {"tensor": {"dtype": "DT_FLOAT", "tensorShape": {"dim": [{"size": "32"}]}}}, "dtype": {"type": "DT_FLOAT"}}}, {"name": "model_37/tf.strided_slice_1/ones_like/tensor", "op": "Const", "attr": {"value": {"tensor": {"dtype": "DT_INT64", "tensorShape": {"dim": [{"size": "4"}]}}}, "dtype": {"type": "DT_INT64"}}}, {"name": "model_37/tf.strided_slice_1/StridedSlice/end", "op": "Const", "attr": {"value": {"tensor": {"dtype": "DT_INT64", "tensorShape": {"dim": [{"size": "4"}]}}}, "dtype": {"type": "DT_INT64"}}}, {"name": "model_37/tf.strided_slice_1/ones_like", "op": "Const", "attr": {"value": {"tensor": {"dtype": "DT_INT64", "tensorShape": {"dim": [{"size": "4"}]}}}, "dtype": {"type": "DT_INT64"}}}, {"name": "model_37/tf.nn.convolution_3/convolution/filter", "op": "Const", "attr": {"value": {"tensor": {"dtype": "DT_FLOAT", "tensorShape": {"dim": [{"size": "3"}, {"size": "3"}, {"size": "16"}, {"size": "8"}]}}}, "dtype": {"type": "DT_FLOAT"}}}, {"name": "model_37/tf.math.add_3/Add/y", "op": "Const", "attr": {"value": {"tensor": {"dtype": "DT_FLOAT", "tensorShape": {"dim": [{"size": "8"}]}}}, "dtype": {"type": "DT_FLOAT"}}}, {"name": "model_37/tf.nn.convolution_4/convolution/filter", "op": "Const", "attr": {"value": {"tensor": {"dtype": "DT_FLOAT", "tensorShape": {"dim": [{"size": "3"}, {"size": "3"}, {"size": "8"}, {"size": "16"}]}}}, "dtype": {"type": "DT_FLOAT"}}}, {"name": "model_37/tf.math.add_4/Add/y", "op": "Const", "attr": {"value": {"tensor": {"dtype": "DT_FLOAT", "tensorShape": {"dim": [{"size": "16"}]}}}, "dtype": {"type": "DT_FLOAT"}}}, {"name": "model_37/tf.concat/concat/axis", "op": "Const", "attr": {"value": {"tensor": {"dtype": "DT_INT32", "tensorShape": {}}}, "dtype": {"type": "DT_INT32"}}}, {"name": "model_37/tf.nn.convolution_5/convolution/filter", "op": "Const", "attr": {"value": {"tensor": {"dtype": "DT_FLOAT", "tensorShape": {"dim": [{"size": "1"}, {"size": "1"}, {"size": "48"}, {"size": "64"}]}}}, "dtype": {"type": "DT_FLOAT"}}}, {"name": "model_37/tf.math.add_7/Add/y", "op": "Const", "attr": {"value": {"tensor": {"dtype": "DT_FLOAT", "tensorShape": {"dim": [{"size": "64"}]}}}, "dtype": {"type": "DT_FLOAT"}}}, {"name": "model_37/tf.compat.v1.pad_2/Pad/paddings", "op": "Const", "attr": {"value": {"tensor": {"dtype": "DT_INT32", "tensorShape": {"dim": [{"size": "4"}, {"size": "2"}]}}}, "dtype": {"type": "DT_INT32"}}}, {"name": "model_37/tf.nn.convolution_6/convolution/filter", "op": "Const", "attr": {"value": {"tensor": {"dtype": "DT_FLOAT", "tensorShape": {"dim": [{"size": "3"}, {"size": "3"}, {"size": "64"}, {"size": "64"}]}}}, "dtype": {"type": "DT_FLOAT"}}}, {"name": "model_37/tf.math.add_8/Add/y", "op": "Const", "attr": {"value": {"tensor": {"dtype": "DT_FLOAT", "tensorShape": {"dim": [{"size": "64"}]}}}, "dtype": {"type": "DT_FLOAT"}}}, {"name": "model_37/tf.nn.convolution_7/convolution/filter", "op": "Const", "attr": {"value": {"tensor": {"dtype": "DT_FLOAT", "tensorShape": {"dim": [{"size": "1"}, {"size": "1"}, {"size": "64"}, {"size": "64"}]}}}, "dtype": {"type": "DT_FLOAT"}}}, {"name": "model_37/tf.math.add_9/Add/y", "op": "Const", "attr": {"value": {"tensor": {"dtype": "DT_FLOAT", "tensorShape": {"dim": [{"size": "64"}]}}}, "dtype": {"type": "DT_FLOAT"}}}, {"name": "model_37/tf.strided_slice_3/ones_like/tensor", "op": "Const", "attr": {"value": {"tensor": {"dtype": "DT_INT64", "tensorShape": {"dim": [{"size": "4"}]}}}, "dtype": {"type": "DT_INT64"}}}, {"name": "model_37/tf.strided_slice_3/StridedSlice/end", "op": "Const", "attr": {"value": {"tensor": {"dtype": "DT_INT64", "tensorShape": {"dim": [{"size": "4"}]}}}, "dtype": {"type": "DT_INT64"}}}, {"name": "model_37/tf.strided_slice_3/ones_like", "op": "Const", "attr": {"value": {"tensor": {"dtype": "DT_INT64", "tensorShape": {"dim": [{"size": "4"}]}}}, "dtype": {"type": "DT_INT64"}}}, {"name": "model_37/tf.nn.convolution_8/convolution/filter", "op": "Const", "attr": {"value": {"tensor": {"dtype": "DT_FLOAT", "tensorShape": {"dim": [{"size": "3"}, {"size": "3"}, {"size": "32"}, {"size": "16"}]}}}, "dtype": {"type": "DT_FLOAT"}}}, {"name": "model_37/tf.math.add_10/Add/y", "op": "Const", "attr": {"value": {"tensor": {"dtype": "DT_FLOAT", "tensorShape": {"dim": [{"size": "16"}]}}}, "dtype": {"type": "DT_FLOAT"}}}, {"name": "model_37/tf.nn.convolution_9/convolution/filter", "op": "Const", "attr": {"value": {"tensor": {"dtype": "DT_FLOAT", "tensorShape": {"dim": [{"size": "3"}, {"size": "3"}, {"size": "16"}, {"size": "32"}]}}}, "dtype": {"type": "DT_FLOAT"}}}, {"name": "model_37/tf.math.add_11/Add/y", "op": "Const", "attr": {"value": {"tensor": {"dtype": "DT_FLOAT", "tensorShape": {"dim": [{"size": "32"}]}}}, "dtype": {"type": "DT_FLOAT"}}}, {"name": "model_37/tf.concat_1/concat/axis", "op": "Const", "attr": {"value": {"tensor": {"dtype": "DT_INT32", "tensorShape": {}}}, "dtype": {"type": "DT_INT32"}}}, {"name": "model_37/tf.nn.convolution_10/convolution/filter", "op": "Const", "attr": {"value": {"tensor": {"dtype": "DT_FLOAT", "tensorShape": {"dim": [{"size": "1"}, {"size": "1"}, {"size": "96"}, {"size": "128"}]}}}, "dtype": {"type": "DT_FLOAT"}}}, {"name": "model_37/tf.math.add_14/Add/y", "op": "Const", "attr": {"value": {"tensor": {"dtype": "DT_FLOAT", "tensorShape": {"dim": [{"size": "128"}]}}}, "dtype": {"type": "DT_FLOAT"}}}, {"name": "model_37/tf.concat_11/concat/axis", "op": "Const", "attr": {"value": {"tensor": {"dtype": "DT_INT32", "tensorShape": {}}}, "dtype": {"type": "DT_INT32"}}}, {"name": "model_37/tf.nn.convolution_171/convolution/filter", "op": "Const", "attr": {"value": {"tensor": {"dtype": "DT_FLOAT", "tensorShape": {"dim": [{"size": "1"}, {"size": "1"}, {"size": "256"}, {"size": "64"}]}}}, "dtype": {"type": "DT_FLOAT"}}}, {"name": "model_37/tf.math.add_64/Add/y", "op": "Const", "attr": {"value": {"tensor": {"dtype": "DT_FLOAT", "tensorShape": {"dim": [{"size": "64"}]}}}, "dtype": {"type": "DT_FLOAT"}}}, {"name": "model_37/tf.strided_slice_11/ones_like/tensor", "op": "Const", "attr": {"value": {"tensor": {"dtype": "DT_INT64", "tensorShape": {"dim": [{"size": "4"}]}}}, "dtype": {"type": "DT_INT64"}}}, {"name": "model_37/tf.strided_slice_11/StridedSlice/end", "op": "Const", "attr": {"value": {"tensor": {"dtype": "DT_INT64", "tensorShape": {"dim": [{"size": "4"}]}}}, "dtype": {"type": "DT_INT64"}}}, {"name": "model_37/tf.strided_slice_11/ones_like", "op": "Const", "attr": {"value": {"tensor": {"dtype": "DT_INT64", "tensorShape": {"dim": [{"size": "4"}]}}}, "dtype": {"type": "DT_INT64"}}}, {"name": "model_37/tf.nn.convolution_172/convolution/filter", "op": "Const", "attr": {"value": {"tensor": {"dtype": "DT_FLOAT", "tensorShape": {"dim": [{"size": "3"}, {"size": "3"}, {"size": "32"}, {"size": "16"}]}}}, "dtype": {"type": "DT_FLOAT"}}}, {"name": "model_37/tf.math.add_65/Add/y", "op": "Const", "attr": {"value": {"tensor": {"dtype": "DT_FLOAT", "tensorShape": {"dim": [{"size": "16"}]}}}, "dtype": {"type": "DT_FLOAT"}}}, {"name": "model_37/tf.nn.convolution_173/convolution/filter", "op": "Const", "attr": {"value": {"tensor": {"dtype": "DT_FLOAT", "tensorShape": {"dim": [{"size": "3"}, {"size": "3"}, {"size": "16"}, {"size": "32"}]}}}, "dtype": {"type": "DT_FLOAT"}}}, {"name": "model_37/tf.math.add_66/Add/y", "op": "Const", "attr": {"value": {"tensor": {"dtype": "DT_FLOAT", "tensorShape": {"dim": [{"size": "32"}]}}}, "dtype": {"type": "DT_FLOAT"}}}, {"name": "model_37/tf.concat_12/concat/axis", "op": "Const", "attr": {"value": {"tensor": {"dtype": "DT_INT32", "tensorShape": {}}}, "dtype": {"type": "DT_INT32"}}}, {"name": "model_37/tf.nn.convolution_174/convolution/filter", "op": "Const", "attr": {"value": {"tensor": {"dtype": "DT_FLOAT", "tensorShape": {"dim": [{"size": "1"}, {"size": "1"}, {"size": "96"}, {"size": "64"}]}}}, "dtype": {"type": "DT_FLOAT"}}}, {"name": "model_37/tf.math.add_69/Add/y", "op": "Const", "attr": {"value": {"tensor": {"dtype": "DT_FLOAT", "tensorShape": {"dim": [{"size": "64"}]}}}, "dtype": {"type": "DT_FLOAT"}}}, {"name": "model_37/tf.nn.convolution_176/convolution/filter", "op": "Const", "attr": {"value": {"tensor": {"dtype": "DT_FLOAT", "tensorShape": {"dim": [{"size": "3"}, {"size": "3"}, {"size": "64"}, {"size": "64"}]}}}, "dtype": {"type": "DT_FLOAT"}}}, {"name": "model_37/tf.math.add_71/Add/y", "op": "Const", "attr": {"value": {"tensor": {"dtype": "DT_FLOAT", "tensorShape": {"dim": [{"size": "64"}]}}}, "dtype": {"type": "DT_FLOAT"}}}, {"name": "model_37/tf.math.add_75/Add/y", "op": "Const", "attr": {"value": {"tensor": {"dtype": "DT_FLOAT", "tensorShape": {"dim": [{"size": "64"}]}}}, "dtype": {"type": "DT_FLOAT"}}}, {"name": "model_37/tf.nn.convolution_183/convolution/filter", "op": "Const", "attr": {"value": {"tensor": {"dtype": "DT_FLOAT", "tensorShape": {"dim": [{"size": "3"}, {"size": "3"}, {"size": "64"}, {"size": "64"}]}}}, "dtype": {"type": "DT_FLOAT"}}}, {"name": "model_37/tf.math.add_80/Add/y", "op": "Const", "attr": {"value": {"tensor": {"dtype": "DT_FLOAT", "tensorShape": {"dim": [{"size": "64"}]}}}, "dtype": {"type": "DT_FLOAT"}}}, {"name": "model_37/tf.nn.convolution_186/convolution/filter", "op": "Const", "attr": {"value": {"tensor": {"dtype": "DT_FLOAT", "tensorShape": {"dim": [{"size": "1"}, {"size": "1"}, {"size": "64"}, {"size": "32"}]}}}, "dtype": {"type": "DT_FLOAT"}}}, {"name": "model_37/tf.math.add_84/Add/y", "op": "Const", "attr": {"value": {"tensor": {"dtype": "DT_FLOAT", "tensorShape": {"dim": [{"size": "32"}]}}}, "dtype": {"type": "DT_FLOAT"}}}, {"name": "x", "op": "Placeholder", "attr": {"shape": {"shape": {"dim": [{"size": "1"}, {"size": "320"}, {"size": "320"}, {"size": "3"}]}}, "dtype": {"type": "DT_FLOAT"}}}, {"name": "model_37/tf.compat.v1.pad/Pad", "op": "Pad", "input": ["x", "model_37/tf.compat.v1.pad/Pad/paddings"], "attr": {"Tpaddings": {"type": "DT_INT32"}, "T": {"type": "DT_FLOAT"}}}, {"name": "model_37/tf.math.add/Add", "op": "_FusedConv2D", "input": ["model_37/tf.compat.v1.pad/Pad", "model_37/tf.nn.convolution/convolution/filter", "model_37/tf.math.add/Add/y"], "device": "/device:CPU:0", "attr": {"num_host_args": {"i": "0"}, "data_format": {"s": "TkhXQw=="}, "filter_format": {"s": "SFdJTw=="}, "fused_ops": {"list": {"s": ["Qmlhc0FkZA=="]}}, "num_args": {"i": "1"}, "strides": {"list": {"i": ["1", "2", "2", "1"]}}, "TArgs": {"list": {"type": ["DT_FLOAT"]}}, "padding": {"s": "VkFMSUQ="}, "use_cudnn_on_gpu": {"b": true}, "leakyrelu_alpha": {"f": 0.2}, "epsilon": {"f": 0.0}, "T": {"type": "DT_FLOAT"}, "explicit_paddings": {"list": {}}, "dilations": {"list": {"i": ["1", "1", "1", "1"]}}}}, {"name": "model_37/tf.math.sigmoid/Sigmoid", "op": "Sigmoid", "input": ["model_37/tf.math.add/Add"], "attr": {"T": {"type": "DT_FLOAT"}}}, {"name": "model_37/tf.math.multiply_3/Mul", "op": "Mul", "input": ["model_37/tf.math.add/Add", "model_37/tf.math.sigmoid/Sigmoid"], "attr": {"T": {"type": "DT_FLOAT"}}}, {"name": "model_37/tf.compat.v1.pad_1/Pad", "op": "Pad", "input": ["model_37/tf.math.multiply_3/Mul", "model_37/tf.compat.v1.pad_1/Pad/paddings"], "attr": {"Tpaddings": {"type": "DT_INT32"}, "T": {"type": "DT_FLOAT"}}}, {"name": "model_37/tf.math.add_1/Add", "op": "_FusedConv2D", "input": ["model_37/tf.compat.v1.pad_1/Pad", "model_37/tf.nn.convolution_1/convolution/filter", "model_37/tf.math.add_1/Add/y"], "device": "/device:CPU:0", "attr": {"num_host_args": {"i": "0"}, "data_format": {"s": "TkhXQw=="}, "filter_format": {"s": "SFdJTw=="}, "fused_ops": {"list": {"s": ["Qmlhc0FkZA=="]}}, "num_args": {"i": "1"}, "strides": {"list": {"i": ["1", "2", "2", "1"]}}, "TArgs": {"list": {"type": ["DT_FLOAT"]}}, "padding": {"s": "VkFMSUQ="}, "use_cudnn_on_gpu": {"b": true}, "leakyrelu_alpha": {"f": 0.2}, "epsilon": {"f": 0.0}, "T": {"type": "DT_FLOAT"}, "explicit_paddings": {"list": {}}, "dilations": {"list": {"i": ["1", "1", "1", "1"]}}}}, {"name": "model_37/tf.math.sigmoid_1/Sigmoid", "op": "Sigmoid", "input": ["model_37/tf.math.add_1/Add"], "attr": {"T": {"type": "DT_FLOAT"}}}, {"name": "model_37/tf.math.multiply_7/Mul", "op": "Mul", "input": ["model_37/tf.math.add_1/Add", "model_37/tf.math.sigmoid_1/Sigmoid"], "attr": {"T": {"type": "DT_FLOAT"}}}, {"name": "model_37/tf.math.add_2/Add", "op": "_FusedConv2D", "input": ["model_37/tf.math.multiply_7/Mul", "model_37/tf.nn.convolution_2/convolution/filter", "model_37/tf.math.add_2/Add/y"], "device": "/device:CPU:0", "attr": {"num_host_args": {"i": "0"}, "data_format": {"s": "TkhXQw=="}, "filter_format": {"s": "SFdJTw=="}, "fused_ops": {"list": {"s": ["Qmlhc0FkZA=="]}}, "num_args": {"i": "1"}, "strides": {"list": {"i": ["1", "1", "1", "1"]}}, "TArgs": {"list": {"type": ["DT_FLOAT"]}}, "padding": {"s": "U0FNRQ=="}, "use_cudnn_on_gpu": {"b": true}, "leakyrelu_alpha": {"f": 0.2}, "epsilon": {"f": 0.0}, "T": {"type": "DT_FLOAT"}, "explicit_paddings": {"list": {}}, "dilations": {"list": {"i": ["1", "1", "1", "1"]}}}}, {"name": "model_37/tf.math.sigmoid_2/Sigmoid", "op": "Sigmoid", "input": ["model_37/tf.math.add_2/Add"], "attr": {"T": {"type": "DT_FLOAT"}}}, {"name": "model_37/tf.math.multiply_11/Mul", "op": "Mul", "input": ["model_37/tf.math.add_2/Add", "model_37/tf.math.sigmoid_2/Sigmoid"], "attr": {"T": {"type": "DT_FLOAT"}}}, {"name": "model_37/tf.strided_slice/StridedSlice", "op": "StridedSlice", "input": ["model_37/tf.math.multiply_11/Mul", "model_37/tf.strided_slice/ones_like/tensor", "model_37/tf.strided_slice/StridedSlice/end", "model_37/tf.strided_slice/ones_like"], "attr": {"shrink_axis_mask": {"i": "0"}, "Index": {"type": "DT_INT64"}, "new_axis_mask": {"i": "0"}, "begin_mask": {"i": "15"}, "T": {"type": "DT_FLOAT"}, "end_mask": {"i": "7"}, "ellipsis_mask": {"i": "0"}}}, {"name": "model_37/tf.strided_slice_1/StridedSlice", "op": "StridedSlice", "input": ["model_37/tf.math.multiply_11/Mul", "model_37/tf.strided_slice_1/ones_like/tensor", "model_37/tf.strided_slice_1/StridedSlice/end", "model_37/tf.strided_slice_1/ones_like"], "attr": {"shrink_axis_mask": {"i": "0"}, "Index": {"type": "DT_INT64"}, "new_axis_mask": {"i": "0"}, "begin_mask": {"i": "7"}, "end_mask": {"i": "7"}, "T": {"type": "DT_FLOAT"}, "ellipsis_mask": {"i": "0"}}}, {"name": "model_37/tf.math.add_3/Add", "op": "_FusedConv2D", "input": ["model_37/tf.strided_slice_1/StridedSlice", "model_37/tf.nn.convolution_3/convolution/filter", "model_37/tf.math.add_3/Add/y"], "device": "/device:CPU:0", "attr": {"num_host_args": {"i": "0"}, "data_format": {"s": "TkhXQw=="}, "filter_format": {"s": "SFdJTw=="}, "strides": {"list": {"i": ["1", "1", "1", "1"]}}, "num_args": {"i": "1"}, "fused_ops": {"list": {"s": ["Qmlhc0FkZA=="]}}, "TArgs": {"list": {"type": ["DT_FLOAT"]}}, "padding": {"s": "U0FNRQ=="}, "use_cudnn_on_gpu": {"b": true}, "leakyrelu_alpha": {"f": 0.2}, "epsilon": {"f": 0.0}, "T": {"type": "DT_FLOAT"}, "explicit_paddings": {"list": {}}, "dilations": {"list": {"i": ["1", "1", "1", "1"]}}}}, {"name": "model_37/tf.math.sigmoid_3/Sigmoid", "op": "Sigmoid", "input": ["model_37/tf.math.add_3/Add"], "attr": {"T": {"type": "DT_FLOAT"}}}, {"name": "model_37/tf.math.multiply_15/Mul", "op": "Mul", "input": ["model_37/tf.math.add_3/Add", "model_37/tf.math.sigmoid_3/Sigmoid"], "attr": {"T": {"type": "DT_FLOAT"}}}, {"name": "model_37/tf.math.add_4/Add", "op": "_FusedConv2D", "input": ["model_37/tf.math.multiply_15/Mul", "model_37/tf.nn.convolution_4/convolution/filter", "model_37/tf.math.add_4/Add/y"], "device": "/device:CPU:0", "attr": {"num_host_args": {"i": "0"}, "data_format": {"s": "TkhXQw=="}, "filter_format": {"s": "SFdJTw=="}, "strides": {"list": {"i": ["1", "1", "1", "1"]}}, "num_args": {"i": "1"}, "fused_ops": {"list": {"s": ["Qmlhc0FkZA=="]}}, "TArgs": {"list": {"type": ["DT_FLOAT"]}}, "padding": {"s": "U0FNRQ=="}, "use_cudnn_on_gpu": {"b": true}, "leakyrelu_alpha": {"f": 0.2}, "epsilon": {"f": 0.0}, "T": {"type": "DT_FLOAT"}, "explicit_paddings": {"list": {}}, "dilations": {"list": {"i": ["1", "1", "1", "1"]}}}}, {"name": "model_37/tf.math.sigmoid_4/Sigmoid", "op": "Sigmoid", "input": ["model_37/tf.math.add_4/Add"], "attr": {"T": {"type": "DT_FLOAT"}}}, {"name": "model_37/tf.math.multiply_19/Mul", "op": "Mul", "input": ["model_37/tf.math.add_4/Add", "model_37/tf.math.sigmoid_4/Sigmoid"], "attr": {"T": {"type": "DT_FLOAT"}}}, {"name": "model_37/tf.math.add_6/Add", "op": "AddV2", "input": ["model_37/tf.strided_slice_1/StridedSlice", "model_37/tf.math.multiply_19/Mul"], "attr": {"T": {"type": "DT_FLOAT"}}}, {"name": "model_37/tf.concat/concat", "op": "ConcatV2", "input": ["model_37/tf.strided_slice/StridedSlice", "model_37/tf.strided_slice_1/StridedSlice", "model_37/tf.math.add_6/Add", "model_37/tf.concat/concat/axis"], "attr": {"N": {"i": "3"}, "T": {"type": "DT_FLOAT"}, "Tidx": {"type": "DT_INT32"}}}, {"name": "model_37/tf.math.add_7/Add", "op": "_FusedConv2D", "input": ["model_37/tf.concat/concat", "model_37/tf.nn.convolution_5/convolution/filter", "model_37/tf.math.add_7/Add/y"], "device": "/device:CPU:0", "attr": {"num_host_args": {"i": "0"}, "data_format": {"s": "TkhXQw=="}, "filter_format": {"s": "SFdJTw=="}, "strides": {"list": {"i": ["1", "1", "1", "1"]}}, "num_args": {"i": "1"}, "fused_ops": {"list": {"s": ["Qmlhc0FkZA=="]}}, "TArgs": {"list": {"type": ["DT_FLOAT"]}}, "padding": {"s": "U0FNRQ=="}, "use_cudnn_on_gpu": {"b": true}, "leakyrelu_alpha": {"f": 0.2}, "epsilon": {"f": 0.0}, "T": {"type": "DT_FLOAT"}, "explicit_paddings": {"list": {}}, "dilations": {"list": {"i": ["1", "1", "1", "1"]}}}}, {"name": "model_37/tf.math.sigmoid_5/Sigmoid", "op": "Sigmoid", "input": ["model_37/tf.math.add_7/Add"], "attr": {"T": {"type": "DT_FLOAT"}}}, {"name": "model_37/tf.math.multiply_25/Mul", "op": "Mul", "input": ["model_37/tf.math.add_7/Add", "model_37/tf.math.sigmoid_5/Sigmoid"], "attr": {"T": {"type": "DT_FLOAT"}}}, {"name": "model_37/tf.compat.v1.pad_2/Pad", "op": "Pad", "input": ["model_37/tf.math.multiply_25/Mul", "model_37/tf.compat.v1.pad_2/Pad/paddings"], "attr": {"Tpaddings": {"type": "DT_INT32"}, "T": {"type": "DT_FLOAT"}}}, {"name": "model_37/tf.math.add_8/Add", "op": "_FusedConv2D", "input": ["model_37/tf.compat.v1.pad_2/Pad", "model_37/tf.nn.convolution_6/convolution/filter", "model_37/tf.math.add_8/Add/y"], "device": "/device:CPU:0", "attr": {"num_host_args": {"i": "0"}, "data_format": {"s": "TkhXQw=="}, "filter_format": {"s": "SFdJTw=="}, "strides": {"list": {"i": ["1", "2", "2", "1"]}}, "num_args": {"i": "1"}, "fused_ops": {"list": {"s": ["Qmlhc0FkZA=="]}}, "TArgs": {"list": {"type": ["DT_FLOAT"]}}, "padding": {"s": "VkFMSUQ="}, "use_cudnn_on_gpu": {"b": true}, "leakyrelu_alpha": {"f": 0.2}, "epsilon": {"f": 0.0}, "T": {"type": "DT_FLOAT"}, "explicit_paddings": {"list": {}}, "dilations": {"list": {"i": ["1", "1", "1", "1"]}}}}, {"name": "model_37/tf.math.sigmoid_6/Sigmoid", "op": "Sigmoid", "input": ["model_37/tf.math.add_8/Add"], "attr": {"T": {"type": "DT_FLOAT"}}}, {"name": "model_37/tf.math.multiply_29/Mul", "op": "Mul", "input": ["model_37/tf.math.add_8/Add", "model_37/tf.math.sigmoid_6/Sigmoid"], "attr": {"T": {"type": "DT_FLOAT"}}}, {"name": "model_37/tf.math.add_9/Add", "op": "_FusedConv2D", "input": ["model_37/tf.math.multiply_29/Mul", "model_37/tf.nn.convolution_7/convolution/filter", "model_37/tf.math.add_9/Add/y"], "device": "/device:CPU:0", "attr": {"num_host_args": {"i": "0"}, "data_format": {"s": "TkhXQw=="}, "filter_format": {"s": "SFdJTw=="}, "fused_ops": {"list": {"s": ["Qmlhc0FkZA=="]}}, "num_args": {"i": "1"}, "strides": {"list": {"i": ["1", "1", "1", "1"]}}, "TArgs": {"list": {"type": ["DT_FLOAT"]}}, "padding": {"s": "U0FNRQ=="}, "use_cudnn_on_gpu": {"b": true}, "leakyrelu_alpha": {"f": 0.2}, "epsilon": {"f": 0.0}, "T": {"type": "DT_FLOAT"}, "explicit_paddings": {"list": {}}, "dilations": {"list": {"i": ["1", "1", "1", "1"]}}}}, {"name": "model_37/tf.math.sigmoid_7/Sigmoid", "op": "Sigmoid", "input": ["model_37/tf.math.add_9/Add"], "attr": {"T": {"type": "DT_FLOAT"}}}, {"name": "model_37/tf.math.multiply_33/Mul", "op": "Mul", "input": ["model_37/tf.math.add_9/Add", "model_37/tf.math.sigmoid_7/Sigmoid"], "attr": {"T": {"type": "DT_FLOAT"}}}, {"name": "model_37/tf.strided_slice_2/StridedSlice", "op": "StridedSlice", "input": ["model_37/tf.math.multiply_33/Mul", "model_37/tf.strided_slice_2/ones_like/tensor", "model_37/tf.strided_slice_2/StridedSlice/end", "model_37/tf.strided_slice_2/ones_like"], "attr": {"shrink_axis_mask": {"i": "0"}, "new_axis_mask": {"i": "0"}, "Index": {"type": "DT_INT64"}, "begin_mask": {"i": "15"}, "end_mask": {"i": "7"}, "T": {"type": "DT_FLOAT"}, "ellipsis_mask": {"i": "0"}}}, {"name": "model_37/tf.strided_slice_3/StridedSlice", "op": "StridedSlice", "input": ["model_37/tf.math.multiply_33/Mul", "model_37/tf.strided_slice_3/ones_like/tensor", "model_37/tf.strided_slice_3/StridedSlice/end", "model_37/tf.strided_slice_3/ones_like"], "attr": {"shrink_axis_mask": {"i": "0"}, "Index": {"type": "DT_INT64"}, "new_axis_mask": {"i": "0"}, "begin_mask": {"i": "7"}, "end_mask": {"i": "7"}, "T": {"type": "DT_FLOAT"}, "ellipsis_mask": {"i": "0"}}}, {"name": "model_37/tf.math.add_10/Add", "op": "_FusedConv2D", "input": ["model_37/tf.strided_slice_3/StridedSlice", "model_37/tf.nn.convolution_8/convolution/filter", "model_37/tf.math.add_10/Add/y"], "device": "/device:CPU:0", "attr": {"num_host_args": {"i": "0"}, "data_format": {"s": "TkhXQw=="}, "filter_format": {"s": "SFdJTw=="}, "fused_ops": {"list": {"s": ["Qmlhc0FkZA=="]}}, "num_args": {"i": "1"}, "strides": {"list": {"i": ["1", "1", "1", "1"]}}, "TArgs": {"list": {"type": ["DT_FLOAT"]}}, "padding": {"s": "U0FNRQ=="}, "use_cudnn_on_gpu": {"b": true}, "leakyrelu_alpha": {"f": 0.2}, "epsilon": {"f": 0.0}, "T": {"type": "DT_FLOAT"}, "explicit_paddings": {"list": {}}, "dilations": {"list": {"i": ["1", "1", "1", "1"]}}}}, {"name": "model_37/tf.math.sigmoid_8/Sigmoid", "op": "Sigmoid", "input": ["model_37/tf.math.add_10/Add"], "attr": {"T": {"type": "DT_FLOAT"}}}, {"name": "model_37/tf.math.multiply_37/Mul", "op": "Mul", "input": ["model_37/tf.math.add_10/Add", "model_37/tf.math.sigmoid_8/Sigmoid"], "attr": {"T": {"type": "DT_FLOAT"}}}, {"name": "model_37/tf.math.add_11/Add", "op": "_FusedConv2D", "input": ["model_37/tf.math.multiply_37/Mul", "model_37/tf.nn.convolution_9/convolution/filter", "model_37/tf.math.add_11/Add/y"], "device": "/device:CPU:0", "attr": {"num_host_args": {"i": "0"}, "data_format": {"s": "TkhXQw=="}, "filter_format": {"s": "SFdJTw=="}, "fused_ops": {"list": {"s": ["Qmlhc0FkZA=="]}}, "num_args": {"i": "1"}, "strides": {"list": {"i": ["1", "1", "1", "1"]}}, "TArgs": {"list": {"type": ["DT_FLOAT"]}}, "padding": {"s": "U0FNRQ=="}, "use_cudnn_on_gpu": {"b": true}, "leakyrelu_alpha": {"f": 0.2}, "epsilon": {"f": 0.0}, "T": {"type": "DT_FLOAT"}, "explicit_paddings": {"list": {}}, "dilations": {"list": {"i": ["1", "1", "1", "1"]}}}}, {"name": "model_37/tf.math.sigmoid_9/Sigmoid", "op": "Sigmoid", "input": ["model_37/tf.math.add_11/Add"], "attr": {"T": {"type": "DT_FLOAT"}}}, {"name": "model_37/tf.math.multiply_41/Mul", "op": "Mul", "input": ["model_37/tf.math.add_11/Add", "model_37/tf.math.sigmoid_9/Sigmoid"], "attr": {"T": {"type": "DT_FLOAT"}}}, {"name": "model_37/tf.math.add_13/Add", "op": "AddV2", "input": ["model_37/tf.strided_slice_3/StridedSlice", "model_37/tf.math.multiply_41/Mul"], "attr": {"T": {"type": "DT_FLOAT"}}}, {"name": "model_37/tf.concat_1/concat", "op": "ConcatV2", "input": ["model_37/tf.strided_slice_2/StridedSlice", "model_37/tf.strided_slice_3/StridedSlice", "model_37/tf.math.add_13/Add", "model_37/tf.concat_1/concat/axis"], "attr": {"N": {"i": "3"}, "T": {"type": "DT_FLOAT"}, "Tidx": {"type": "DT_INT32"}}}, {"name": "model_37/tf.math.add_14/Add", "op": "_FusedConv2D", "input": ["model_37/tf.concat_1/concat", "model_37/tf.nn.convolution_10/convolution/filter", "model_37/tf.math.add_14/Add/y"], "device": "/device:CPU:0", "attr": {"num_host_args": {"i": "0"}, "data_format": {"s": "TkhXQw=="}, "filter_format": {"s": "SFdJTw=="}, "strides": {"list": {"i": ["1", "1", "1", "1"]}}, "num_args": {"i": "1"}, "fused_ops": {"list": {"s": ["Qmlhc0FkZA=="]}}, "TArgs": {"list": {"type": ["DT_FLOAT"]}}, "padding": {"s": "U0FNRQ=="}, "use_cudnn_on_gpu": {"b": true}, "leakyrelu_alpha": {"f": 0.2}, "epsilon": {"f": 0.0}, "T": {"type": "DT_FLOAT"}, "explicit_paddings": {"list": {}}, "dilations": {"list": {"i": ["1", "1", "1", "1"]}}}}, {"name": "model_37/tf.math.sigmoid_10/Sigmoid", "op": "Sigmoid", "input": ["model_37/tf.math.add_14/Add"], "attr": {"T": {"type": "DT_FLOAT"}}}, {"name": "model_37/tf.math.multiply_47/Mul", "op": "Mul", "input": ["model_37/tf.math.add_14/Add", "model_37/tf.math.sigmoid_10/Sigmoid"], "attr": {"T": {"type": "DT_FLOAT"}}}, {"name": "model_37/tf.compat.v1.pad_3/Pad", "op": "Pad", "input": ["model_37/tf.math.multiply_47/Mul", "model_37/tf.compat.v1.pad_3/Pad/paddings"], "attr": {"Tpaddings": {"type": "DT_INT32"}, "T": {"type": "DT_FLOAT"}}}, {"name": "model_37/tf.math.add_15/Add", "op": "_FusedConv2D", "input": ["model_37/tf.compat.v1.pad_3/Pad", "model_37/tf.nn.convolution_11/convolution/filter", "model_37/tf.math.add_15/Add/y"], "device": "/device:CPU:0", "attr": {"num_host_args": {"i": "0"}, "data_format": {"s": "TkhXQw=="}, "filter_format": {"s": "SFdJTw=="}, "fused_ops": {"list": {"s": ["Qmlhc0FkZA=="]}}, "num_args": {"i": "1"}, "strides": {"list": {"i": ["1", "2", "2", "1"]}}, "TArgs": {"list": {"type": ["DT_FLOAT"]}}, "padding": {"s": "VkFMSUQ="}, "use_cudnn_on_gpu": {"b": true}, "leakyrelu_alpha": {"f": 0.2}, "epsilon": {"f": 0.0}, "T": {"type": "DT_FLOAT"}, "explicit_paddings": {"list": {}}, "dilations": {"list": {"i": ["1", "1", "1", "1"]}}}}, {"name": "model_37/tf.math.sigmoid_11/Sigmoid", "op": "Sigmoid", "input": ["model_37/tf.math.add_15/Add"], "attr": {"T": {"type": "DT_FLOAT"}}}, {"name": "model_37/tf.math.multiply_51/Mul", "op": "Mul", "input": ["model_37/tf.math.add_15/Add", "model_37/tf.math.sigmoid_11/Sigmoid"], "attr": {"T": {"type": "DT_FLOAT"}}}, {"name": "model_37/tf.math.add_16/Add", "op": "_FusedConv2D", "input": ["model_37/tf.math.multiply_51/Mul", "model_37/tf.nn.convolution_12/convolution/filter", "model_37/tf.math.add_16/Add/y"], "device": "/device:CPU:0", "attr": {"num_host_args": {"i": "0"}, "data_format": {"s": "TkhXQw=="}, "filter_format": {"s": "SFdJTw=="}, "strides": {"list": {"i": ["1", "1", "1", "1"]}}, "num_args": {"i": "1"}, "fused_ops": {"list": {"s": ["Qmlhc0FkZA=="]}}, "TArgs": {"list": {"type": ["DT_FLOAT"]}}, "padding": {"s": "U0FNRQ=="}, "use_cudnn_on_gpu": {"b": true}, "leakyrelu_alpha": {"f": 0.2}, "epsilon": {"f": 0.0}, "T": {"type": "DT_FLOAT"}, "explicit_paddings": {"list": {}}, "dilations": {"list": {"i": ["1", "1", "1", "1"]}}}}, {"name": "model_37/tf.math.sigmoid_12/Sigmoid", "op": "Sigmoid", "input": ["model_37/tf.math.add_16/Add"], "attr": {"T": {"type": "DT_FLOAT"}}}, {"name": "model_37/tf.math.multiply_55/Mul", "op": "Mul", "input": ["model_37/tf.math.add_16/Add", "model_37/tf.math.sigmoid_12/Sigmoid"], "attr": {"T": {"type": "DT_FLOAT"}}}, {"name": "model_37/tf.strided_slice_4/StridedSlice", "op": "StridedSlice", "input": ["model_37/tf.math.multiply_55/Mul", "model_37/tf.strided_slice_4/ones_like/tensor", "model_37/tf.strided_slice_4/StridedSlice/end", "model_37/tf.strided_slice_4/ones_like"], "attr": {"shrink_axis_mask": {"i": "0"}, "new_axis_mask": {"i": "0"}, "Index": {"type": "DT_INT64"}, "begin_mask": {"i": "15"}, "T": {"type": "DT_FLOAT"}, "end_mask": {"i": "7"}, "ellipsis_mask": {"i": "0"}}}, {"name": "model_37/tf.strided_slice_5/StridedSlice", "op": "StridedSlice", "input": ["model_37/tf.math.multiply_55/Mul", "model_37/tf.strided_slice_5/ones_like/tensor", "model_37/tf.strided_slice_5/StridedSlice/end", "model_37/tf.strided_slice_5/ones_like"], "attr": {"shrink_axis_mask": {"i": "0"}, "new_axis_mask": {"i": "0"}, "Index": {"type": "DT_INT64"}, "begin_mask": {"i": "7"}, "T": {"type": "DT_FLOAT"}, "end_mask": {"i": "7"}, "ellipsis_mask": {"i": "0"}}}, {"name": "model_37/tf.math.add_17/Add", "op": "_FusedConv2D", "input": ["model_37/tf.strided_slice_5/StridedSlice", "model_37/tf.nn.convolution_13/convolution/filter", "model_37/tf.math.add_17/Add/y"], "device": "/device:CPU:0", "attr": {"num_host_args": {"i": "0"}, "data_format": {"s": "TkhXQw=="}, "filter_format": {"s": "SFdJTw=="}, "fused_ops": {"list": {"s": ["Qmlhc0FkZA=="]}}, "num_args": {"i": "1"}, "strides": {"list": {"i": ["1", "1", "1", "1"]}}, "TArgs": {"list": {"type": ["DT_FLOAT"]}}, "padding": {"s": "U0FNRQ=="}, "use_cudnn_on_gpu": {"b": true}, "leakyrelu_alpha": {"f": 0.2}, "epsilon": {"f": 0.0}, "T": {"type": "DT_FLOAT"}, "explicit_paddings": {"list": {}}, "dilations": {"list": {"i": ["1", "1", "1", "1"]}}}}, {"name": "model_37/tf.math.add_18/Add", "op": "_FusedConv2D", "input": ["model_37/tf.strided_slice_5/StridedSlice", "model_37/tf.nn.convolution_14/convolution/filter", "model_37/tf.math.add_18/Add/y"], "device": "/device:CPU:0", "attr": {"num_host_args": {"i": "0"}, "data_format": {"s": "TkhXQw=="}, "filter_format": {"s": "SFdJTw=="}, "strides": {"list": {"i": ["1", "1", "1", "1"]}}, "num_args": {"i": "1"}, "fused_ops": {"list": {"s": ["Qmlhc0FkZA=="]}}, "TArgs": {"list": {"type": ["DT_FLOAT"]}}, "padding": {"s": "U0FNRQ=="}, "use_cudnn_on_gpu": {"b": true}, "leakyrelu_alpha": {"f": 0.2}, "epsilon": {"f": 0.0}, "T": {"type": "DT_FLOAT"}, "explicit_paddings": {"list": {}}, "dilations": {"list": {"i": ["1", "1", "1", "1"]}}}}, {"name": "model_37/tf.math.sigmoid_13/Sigmoid", "op": "Sigmoid", "input": ["model_37/tf.math.add_17/Add"], "attr": {"T": {"type": "DT_FLOAT"}}}, {"name": "model_37/tf.math.sigmoid_14/Sigmoid", "op": "Sigmoid", "input": ["model_37/tf.math.add_18/Add"], "attr": {"T": {"type": "DT_FLOAT"}}}, {"name": "model_37/tf.math.multiply_59/Mul", "op": "Mul", "input": ["model_37/tf.math.add_17/Add", "model_37/tf.math.sigmoid_13/Sigmoid"], "attr": {"T": {"type": "DT_FLOAT"}}}, {"name": "model_37/tf.math.multiply_63/Mul", "op": "Mul", "input": ["model_37/tf.math.add_18/Add", "model_37/tf.math.sigmoid_14/Sigmoid"], "attr": {"T": {"type": "DT_FLOAT"}}}, {"name": "model_37/tf.math.add_19/Add", "op": "_FusedConv2D", "input": ["model_37/tf.math.multiply_59/Mul", "model_37/tf.nn.convolution_15/convolution/filter", "model_37/tf.math.add_19/Add/y"], "device": "/device:CPU:0", "attr": {"num_host_args": {"i": "0"}, "data_format": {"s": "TkhXQw=="}, "filter_format": {"s": "SFdJTw=="}, "strides": {"list": {"i": ["1", "1", "1", "1"]}}, "num_args": {"i": "1"}, "fused_ops": {"list": {"s": ["Qmlhc0FkZA=="]}}, "TArgs": {"list": {"type": ["DT_FLOAT"]}}, "padding": {"s": "U0FNRQ=="}, "use_cudnn_on_gpu": {"b": true}, "leakyrelu_alpha": {"f": 0.2}, "epsilon": {"f": 0.0}, "T": {"type": "DT_FLOAT"}, "explicit_paddings": {"list": {}}, "dilations": {"list": {"i": ["1", "1", "1", "1"]}}}}, {"name": "model_37/tf.math.sigmoid_15/Sigmoid", "op": "Sigmoid", "input": ["model_37/tf.math.add_19/Add"], "attr": {"T": {"type": "DT_FLOAT"}}}, {"name": "model_37/tf.math.multiply_67/Mul", "op": "Mul", "input": ["model_37/tf.math.add_19/Add", "model_37/tf.math.sigmoid_15/Sigmoid"], "attr": {"T": {"type": "DT_FLOAT"}}}, {"name": "model_37/tf.math.add_20/Add", "op": "_FusedConv2D", "input": ["model_37/tf.math.multiply_67/Mul", "model_37/tf.nn.convolution_16/convolution/filter", "model_37/tf.math.add_20/Add/y"], "device": "/device:CPU:0", "attr": {"num_host_args": {"i": "0"}, "data_format": {"s": "TkhXQw=="}, "filter_format": {"s": "SFdJTw=="}, "strides": {"list": {"i": ["1", "1", "1", "1"]}}, "num_args": {"i": "1"}, "fused_ops": {"list": {"s": ["Qmlhc0FkZA=="]}}, "TArgs": {"list": {"type": ["DT_FLOAT"]}}, "padding": {"s": "U0FNRQ=="}, "use_cudnn_on_gpu": {"b": true}, "leakyrelu_alpha": {"f": 0.2}, "epsilon": {"f": 0.0}, "T": {"type": "DT_FLOAT"}, "explicit_paddings": {"list": {}}, "dilations": {"list": {"i": ["1", "1", "1", "1"]}}}}, {"name": "model_37/tf.math.sigmoid_16/Sigmoid", "op": "Sigmoid", "input": ["model_37/tf.math.add_20/Add"], "attr": {"T": {"type": "DT_FLOAT"}}}, {"name": "model_37/tf.math.multiply_71/Mul", "op": "Mul", "input": ["model_37/tf.math.add_20/Add", "model_37/tf.math.sigmoid_16/Sigmoid"], "attr": {"T": {"type": "DT_FLOAT"}}}, {"name": "model_37/tf.math.add_22/Add", "op": "AddV2", "input": ["model_37/tf.math.multiply_59/Mul", "model_37/tf.math.multiply_71/Mul"], "attr": {"T": {"type": "DT_FLOAT"}}}, {"name": "model_37/tf.math.add_23/Add", "op": "_FusedConv2D", "input": ["model_37/tf.math.add_22/Add", "model_37/tf.nn.convolution_17/convolution/filter", "model_37/tf.math.add_23/Add/y"], "device": "/device:CPU:0", "attr": {"num_host_args": {"i": "0"}, "data_format": {"s": "TkhXQw=="}, "filter_format": {"s": "SFdJTw=="}, "fused_ops": {"list": {"s": ["Qmlhc0FkZA=="]}}, "num_args": {"i": "1"}, "strides": {"list": {"i": ["1", "1", "1", "1"]}}, "TArgs": {"list": {"type": ["DT_FLOAT"]}}, "padding": {"s": "U0FNRQ=="}, "use_cudnn_on_gpu": {"b": true}, "leakyrelu_alpha": {"f": 0.2}, "epsilon": {"f": 0.0}, "T": {"type": "DT_FLOAT"}, "explicit_paddings": {"list": {}}, "dilations": {"list": {"i": ["1", "1", "1", "1"]}}}}, {"name": "model_37/tf.math.sigmoid_17/Sigmoid", "op": "Sigmoid", "input": ["model_37/tf.math.add_23/Add"], "attr": {"T": {"type": "DT_FLOAT"}}}, {"name": "model_37/tf.math.multiply_77/Mul", "op": "Mul", "input": ["model_37/tf.math.add_23/Add", "model_37/tf.math.sigmoid_17/Sigmoid"], "attr": {"T": {"type": "DT_FLOAT"}}}, {"name": "model_37/tf.math.add_24/Add", "op": "_FusedConv2D", "input": ["model_37/tf.math.multiply_77/Mul", "model_37/tf.nn.convolution_18/convolution/filter", "model_37/tf.math.add_24/Add/y"], "device": "/device:CPU:0", "attr": {"num_host_args": {"i": "0"}, "data_format": {"s": "TkhXQw=="}, "filter_format": {"s": "SFdJTw=="}, "strides": {"list": {"i": ["1", "1", "1", "1"]}}, "num_args": {"i": "1"}, "fused_ops": {"list": {"s": ["Qmlhc0FkZA=="]}}, "TArgs": {"list": {"type": ["DT_FLOAT"]}}, "padding": {"s": "U0FNRQ=="}, "use_cudnn_on_gpu": {"b": true}, "leakyrelu_alpha": {"f": 0.2}, "epsilon": {"f": 0.0}, "T": {"type": "DT_FLOAT"}, "explicit_paddings": {"list": {}}, "dilations": {"list": {"i": ["1", "1", "1", "1"]}}}}, {"name": "model_37/tf.math.sigmoid_18/Sigmoid", "op": "Sigmoid", "input": ["model_37/tf.math.add_24/Add"], "attr": {"T": {"type": "DT_FLOAT"}}}, {"name": "model_37/tf.math.multiply_81/Mul", "op": "Mul", "input": ["model_37/tf.math.add_24/Add", "model_37/tf.math.sigmoid_18/Sigmoid"], "attr": {"T": {"type": "DT_FLOAT"}}}, {"name": "model_37/tf.math.add_26/Add", "op": "AddV2", "input": ["model_37/tf.math.add_22/Add", "model_37/tf.math.multiply_81/Mul"], "attr": {"T": {"type": "DT_FLOAT"}}}, {"name": "model_37/tf.concat_2/concat", "op": "ConcatV2", "input": ["model_37/tf.math.add_26/Add", "model_37/tf.math.multiply_63/Mul", "model_37/tf.concat_2/concat/axis"], "attr": {"N": {"i": "2"}, "T": {"type": "DT_FLOAT"}, "Tidx": {"type": "DT_INT32"}}}, {"name": "model_37/tf.math.add_27/Add", "op": "_FusedConv2D", "input": ["model_37/tf.concat_2/concat", "model_37/tf.nn.convolution_19/convolution/filter", "model_37/tf.math.add_27/Add/y"], "device": "/device:CPU:0", "attr": {"num_host_args": {"i": "0"}, "data_format": {"s": "TkhXQw=="}, "filter_format": {"s": "SFdJTw=="}, "strides": {"list": {"i": ["1", "1", "1", "1"]}}, "num_args": {"i": "1"}, "fused_ops": {"list": {"s": ["Qmlhc0FkZA=="]}}, "TArgs": {"list": {"type": ["DT_FLOAT"]}}, "padding": {"s": "U0FNRQ=="}, "use_cudnn_on_gpu": {"b": true}, "leakyrelu_alpha": {"f": 0.2}, "epsilon": {"f": 0.0}, "T": {"type": "DT_FLOAT"}, "explicit_paddings": {"list": {}}, "dilations": {"list": {"i": ["1", "1", "1", "1"]}}}}, {"name": "model_37/tf.math.sigmoid_19/Sigmoid", "op": "Sigmoid", "input": ["model_37/tf.math.add_27/Add"], "attr": {"T": {"type": "DT_FLOAT"}}}, {"name": "model_37/tf.math.multiply_87/Mul", "op": "Mul", "input": ["model_37/tf.math.add_27/Add", "model_37/tf.math.sigmoid_19/Sigmoid"], "attr": {"T": {"type": "DT_FLOAT"}}}, {"name": "model_37/tf.concat_3/concat", "op": "ConcatV2", "input": ["model_37/tf.strided_slice_4/StridedSlice", "model_37/tf.strided_slice_5/StridedSlice", "model_37/tf.math.multiply_87/Mul", "model_37/tf.concat_3/concat/axis"], "attr": {"N": {"i": "3"}, "T": {"type": "DT_FLOAT"}, "Tidx": {"type": "DT_INT32"}}}, {"name": "model_37/tf.math.add_28/Add", "op": "_FusedConv2D", "input": ["model_37/tf.concat_3/concat", "model_37/tf.nn.convolution_20/convolution/filter", "model_37/tf.math.add_28/Add/y"], "device": "/device:CPU:0", "attr": {"num_host_args": {"i": "0"}, "data_format": {"s": "TkhXQw=="}, "filter_format": {"s": "SFdJTw=="}, "strides": {"list": {"i": ["1", "1", "1", "1"]}}, "num_args": {"i": "1"}, "fused_ops": {"list": {"s": ["Qmlhc0FkZA=="]}}, "TArgs": {"list": {"type": ["DT_FLOAT"]}}, "padding": {"s": "U0FNRQ=="}, "use_cudnn_on_gpu": {"b": true}, "leakyrelu_alpha": {"f": 0.2}, "epsilon": {"f": 0.0}, "T": {"type": "DT_FLOAT"}, "explicit_paddings": {"list": {}}, "dilations": {"list": {"i": ["1", "1", "1", "1"]}}}}, {"name": "model_37/tf.math.sigmoid_20/Sigmoid", "op": "Sigmoid", "input": ["model_37/tf.math.add_28/Add"], "attr": {"T": {"type": "DT_FLOAT"}}}, {"name": "model_37/tf.math.multiply_91/Mul", "op": "Mul", "input": ["model_37/tf.math.add_28/Add", "model_37/tf.math.sigmoid_20/Sigmoid"], "attr": {"T": {"type": "DT_FLOAT"}}}, {"name": "model_37/tf.compat.v1.pad_4/Pad", "op": "Pad", "input": ["model_37/tf.math.multiply_91/Mul", "model_37/tf.compat.v1.pad_4/Pad/paddings"], "attr": {"Tpaddings": {"type": "DT_INT32"}, "T": {"type": "DT_FLOAT"}}}, {"name": "model_37/tf.math.add_29/Add", "op": "_FusedConv2D", "input": ["model_37/tf.compat.v1.pad_4/Pad", "model_37/tf.nn.convolution_21/convolution/filter", "model_37/tf.math.add_29/Add/y"], "device": "/device:CPU:0", "attr": {"num_host_args": {"i": "0"}, "data_format": {"s": "TkhXQw=="}, "filter_format": {"s": "SFdJTw=="}, "fused_ops": {"list": {"s": ["Qmlhc0FkZA=="]}}, "num_args": {"i": "1"}, "strides": {"list": {"i": ["1", "2", "2", "1"]}}, "TArgs": {"list": {"type": ["DT_FLOAT"]}}, "padding": {"s": "VkFMSUQ="}, "use_cudnn_on_gpu": {"b": true}, "leakyrelu_alpha": {"f": 0.2}, "epsilon": {"f": 0.0}, "T": {"type": "DT_FLOAT"}, "explicit_paddings": {"list": {}}, "dilations": {"list": {"i": ["1", "1", "1", "1"]}}}}, {"name": "model_37/tf.math.sigmoid_21/Sigmoid", "op": "Sigmoid", "input": ["model_37/tf.math.add_29/Add"], "attr": {"T": {"type": "DT_FLOAT"}}}, {"name": "model_37/tf.math.multiply_95/Mul", "op": "Mul", "input": ["model_37/tf.math.add_29/Add", "model_37/tf.math.sigmoid_21/Sigmoid"], "attr": {"T": {"type": "DT_FLOAT"}}}, {"name": "model_37/tf.math.add_30/Add", "op": "_FusedConv2D", "input": ["model_37/tf.math.multiply_95/Mul", "model_37/tf.nn.convolution_22/convolution/filter", "model_37/tf.math.add_30/Add/y"], "device": "/device:CPU:0", "attr": {"num_host_args": {"i": "0"}, "data_format": {"s": "TkhXQw=="}, "filter_format": {"s": "SFdJTw=="}, "strides": {"list": {"i": ["1", "1", "1", "1"]}}, "num_args": {"i": "1"}, "fused_ops": {"list": {"s": ["Qmlhc0FkZA=="]}}, "TArgs": {"list": {"type": ["DT_FLOAT"]}}, "padding": {"s": "U0FNRQ=="}, "use_cudnn_on_gpu": {"b": true}, "leakyrelu_alpha": {"f": 0.2}, "epsilon": {"f": 0.0}, "T": {"type": "DT_FLOAT"}, "explicit_paddings": {"list": {}}, "dilations": {"list": {"i": ["1", "1", "1", "1"]}}}}, {"name": "model_37/tf.math.sigmoid_22/Sigmoid", "op": "Sigmoid", "input": ["model_37/tf.math.add_30/Add"], "attr": {"T": {"type": "DT_FLOAT"}}}, {"name": "model_37/tf.math.multiply_99/Mul", "op": "Mul", "input": ["model_37/tf.math.add_30/Add", "model_37/tf.math.sigmoid_22/Sigmoid"], "attr": {"T": {"type": "DT_FLOAT"}}}, {"name": "model_37/tf.strided_slice_6/StridedSlice", "op": "StridedSlice", "input": ["model_37/tf.math.multiply_99/Mul", "model_37/tf.strided_slice_6/ones_like/tensor", "model_37/tf.strided_slice_6/StridedSlice/end", "model_37/tf.strided_slice_6/ones_like"], "attr": {"shrink_axis_mask": {"i": "0"}, "Index": {"type": "DT_INT64"}, "new_axis_mask": {"i": "0"}, "begin_mask": {"i": "15"}, "end_mask": {"i": "7"}, "T": {"type": "DT_FLOAT"}, "ellipsis_mask": {"i": "0"}}}, {"name": "model_37/tf.strided_slice_7/StridedSlice", "op": "StridedSlice", "input": ["model_37/tf.math.multiply_99/Mul", "model_37/tf.strided_slice_7/ones_like/tensor", "model_37/tf.strided_slice_7/StridedSlice/end", "model_37/tf.strided_slice_7/ones_like"], "attr": {"shrink_axis_mask": {"i": "0"}, "Index": {"type": "DT_INT64"}, "new_axis_mask": {"i": "0"}, "begin_mask": {"i": "7"}, "end_mask": {"i": "7"}, "T": {"type": "DT_FLOAT"}, "ellipsis_mask": {"i": "0"}}}, {"name": "model_37/tf.math.add_31/Add", "op": "_FusedConv2D", "input": ["model_37/tf.strided_slice_7/StridedSlice", "model_37/tf.nn.convolution_23/convolution/filter", "model_37/tf.math.add_31/Add/y"], "device": "/device:CPU:0", "attr": {"num_host_args": {"i": "0"}, "data_format": {"s": "TkhXQw=="}, "filter_format": {"s": "SFdJTw=="}, "fused_ops": {"list": {"s": ["Qmlhc0FkZA=="]}}, "num_args": {"i": "1"}, "strides": {"list": {"i": ["1", "1", "1", "1"]}}, "TArgs": {"list": {"type": ["DT_FLOAT"]}}, "padding": {"s": "U0FNRQ=="}, "use_cudnn_on_gpu": {"b": true}, "leakyrelu_alpha": {"f": 0.2}, "epsilon": {"f": 0.0}, "T": {"type": "DT_FLOAT"}, "explicit_paddings": {"list": {}}, "dilations": {"list": {"i": ["1", "1", "1", "1"]}}}}, {"name": "model_37/tf.math.add_32/Add", "op": "_FusedConv2D", "input": ["model_37/tf.strided_slice_7/StridedSlice", "model_37/tf.nn.convolution_24/convolution/filter", "model_37/tf.math.add_32/Add/y"], "device": "/device:CPU:0", "attr": {"num_host_args": {"i": "0"}, "data_format": {"s": "TkhXQw=="}, "filter_format": {"s": "SFdJTw=="}, "strides": {"list": {"i": ["1", "1", "1", "1"]}}, "num_args": {"i": "1"}, "fused_ops": {"list": {"s": ["Qmlhc0FkZA=="]}}, "TArgs": {"list": {"type": ["DT_FLOAT"]}}, "padding": {"s": "U0FNRQ=="}, "use_cudnn_on_gpu": {"b": true}, "leakyrelu_alpha": {"f": 0.2}, "epsilon": {"f": 0.0}, "T": {"type": "DT_FLOAT"}, "explicit_paddings": {"list": {}}, "dilations": {"list": {"i": ["1", "1", "1", "1"]}}}}, {"name": "model_37/tf.math.sigmoid_23/Sigmoid", "op": "Sigmoid", "input": ["model_37/tf.math.add_31/Add"], "attr": {"T": {"type": "DT_FLOAT"}}}, {"name": "model_37/tf.math.sigmoid_24/Sigmoid", "op": "Sigmoid", "input": ["model_37/tf.math.add_32/Add"], "attr": {"T": {"type": "DT_FLOAT"}}}, {"name": "model_37/tf.math.multiply_103/Mul", "op": "Mul", "input": ["model_37/tf.math.add_31/Add", "model_37/tf.math.sigmoid_23/Sigmoid"], "attr": {"T": {"type": "DT_FLOAT"}}}, {"name": "model_37/tf.math.multiply_107/Mul", "op": "Mul", "input": ["model_37/tf.math.add_32/Add", "model_37/tf.math.sigmoid_24/Sigmoid"], "attr": {"T": {"type": "DT_FLOAT"}}}, {"name": "model_37/tf.math.add_33/Add", "op": "_FusedConv2D", "input": ["model_37/tf.math.multiply_103/Mul", "model_37/tf.nn.convolution_25/convolution/filter", "model_37/tf.math.add_33/Add/y"], "device": "/device:CPU:0", "attr": {"num_host_args": {"i": "0"}, "data_format": {"s": "TkhXQw=="}, "filter_format": {"s": "SFdJTw=="}, "fused_ops": {"list": {"s": ["Qmlhc0FkZA=="]}}, "num_args": {"i": "1"}, "strides": {"list": {"i": ["1", "1", "1", "1"]}}, "TArgs": {"list": {"type": ["DT_FLOAT"]}}, "padding": {"s": "U0FNRQ=="}, "use_cudnn_on_gpu": {"b": true}, "leakyrelu_alpha": {"f": 0.2}, "epsilon": {"f": 0.0}, "T": {"type": "DT_FLOAT"}, "explicit_paddings": {"list": {}}, "dilations": {"list": {"i": ["1", "1", "1", "1"]}}}}, {"name": "model_37/tf.math.sigmoid_25/Sigmoid", "op": "Sigmoid", "input": ["model_37/tf.math.add_33/Add"], "attr": {"T": {"type": "DT_FLOAT"}}}, {"name": "model_37/tf.math.multiply_111/Mul", "op": "Mul", "input": ["model_37/tf.math.add_33/Add", "model_37/tf.math.sigmoid_25/Sigmoid"], "attr": {"T": {"type": "DT_FLOAT"}}}, {"name": "model_37/tf.math.add_34/Add", "op": "_FusedConv2D", "input": ["model_37/tf.math.multiply_111/Mul", "model_37/tf.nn.convolution_26/convolution/filter", "model_37/tf.math.add_34/Add/y"], "device": "/device:CPU:0", "attr": {"num_host_args": {"i": "0"}, "data_format": {"s": "TkhXQw=="}, "filter_format": {"s": "SFdJTw=="}, "fused_ops": {"list": {"s": ["Qmlhc0FkZA=="]}}, "num_args": {"i": "1"}, "strides": {"list": {"i": ["1", "1", "1", "1"]}}, "TArgs": {"list": {"type": ["DT_FLOAT"]}}, "padding": {"s": "U0FNRQ=="}, "use_cudnn_on_gpu": {"b": true}, "leakyrelu_alpha": {"f": 0.2}, "epsilon": {"f": 0.0}, "T": {"type": "DT_FLOAT"}, "explicit_paddings": {"list": {}}, "dilations": {"list": {"i": ["1", "1", "1", "1"]}}}}, {"name": "model_37/tf.math.sigmoid_26/Sigmoid", "op": "Sigmoid", "input": ["model_37/tf.math.add_34/Add"], "attr": {"T": {"type": "DT_FLOAT"}}}, {"name": "model_37/tf.math.multiply_115/Mul", "op": "Mul", "input": ["model_37/tf.math.add_34/Add", "model_37/tf.math.sigmoid_26/Sigmoid"], "attr": {"T": {"type": "DT_FLOAT"}}}, {"name": "model_37/tf.math.add_36/Add", "op": "AddV2", "input": ["model_37/tf.math.multiply_103/Mul", "model_37/tf.math.multiply_115/Mul"], "attr": {"T": {"type": "DT_FLOAT"}}}, {"name": "model_37/tf.math.add_37/Add", "op": "_FusedConv2D", "input": ["model_37/tf.math.add_36/Add", "model_37/tf.nn.convolution_27/convolution/filter", "model_37/tf.math.add_37/Add/y"], "device": "/device:CPU:0", "attr": {"num_host_args": {"i": "0"}, "data_format": {"s": "TkhXQw=="}, "filter_format": {"s": "SFdJTw=="}, "fused_ops": {"list": {"s": ["Qmlhc0FkZA=="]}}, "num_args": {"i": "1"}, "strides": {"list": {"i": ["1", "1", "1", "1"]}}, "TArgs": {"list": {"type": ["DT_FLOAT"]}}, "padding": {"s": "U0FNRQ=="}, "use_cudnn_on_gpu": {"b": true}, "leakyrelu_alpha": {"f": 0.2}, "epsilon": {"f": 0.0}, "T": {"type": "DT_FLOAT"}, "explicit_paddings": {"list": {}}, "dilations": {"list": {"i": ["1", "1", "1", "1"]}}}}, {"name": "model_37/tf.math.sigmoid_27/Sigmoid", "op": "Sigmoid", "input": ["model_37/tf.math.add_37/Add"], "attr": {"T": {"type": "DT_FLOAT"}}}, {"name": "model_37/tf.math.multiply_121/Mul", "op": "Mul", "input": ["model_37/tf.math.add_37/Add", "model_37/tf.math.sigmoid_27/Sigmoid"], "attr": {"T": {"type": "DT_FLOAT"}}}, {"name": "model_37/tf.math.add_38/Add", "op": "_FusedConv2D", "input": ["model_37/tf.math.multiply_121/Mul", "model_37/tf.nn.convolution_28/convolution/filter", "model_37/tf.math.add_38/Add/y"], "device": "/device:CPU:0", "attr": {"num_host_args": {"i": "0"}, "data_format": {"s": "TkhXQw=="}, "filter_format": {"s": "SFdJTw=="}, "strides": {"list": {"i": ["1", "1", "1", "1"]}}, "num_args": {"i": "1"}, "fused_ops": {"list": {"s": ["Qmlhc0FkZA=="]}}, "TArgs": {"list": {"type": ["DT_FLOAT"]}}, "padding": {"s": "U0FNRQ=="}, "use_cudnn_on_gpu": {"b": true}, "leakyrelu_alpha": {"f": 0.2}, "epsilon": {"f": 0.0}, "T": {"type": "DT_FLOAT"}, "explicit_paddings": {"list": {}}, "dilations": {"list": {"i": ["1", "1", "1", "1"]}}}}, {"name": "model_37/tf.math.sigmoid_28/Sigmoid", "op": "Sigmoid", "input": ["model_37/tf.math.add_38/Add"], "attr": {"T": {"type": "DT_FLOAT"}}}, {"name": "model_37/tf.math.multiply_125/Mul", "op": "Mul", "input": ["model_37/tf.math.add_38/Add", "model_37/tf.math.sigmoid_28/Sigmoid"], "attr": {"T": {"type": "DT_FLOAT"}}}, {"name": "model_37/tf.math.add_40/Add", "op": "AddV2", "input": ["model_37/tf.math.add_36/Add", "model_37/tf.math.multiply_125/Mul"], "attr": {"T": {"type": "DT_FLOAT"}}}, {"name": "model_37/tf.concat_4/concat", "op": "ConcatV2", "input": ["model_37/tf.math.add_40/Add", "model_37/tf.math.multiply_107/Mul", "model_37/tf.concat_4/concat/axis"], "attr": {"N": {"i": "2"}, "T": {"type": "DT_FLOAT"}, "Tidx": {"type": "DT_INT32"}}}, {"name": "model_37/tf.math.add_41/Add", "op": "_FusedConv2D", "input": ["model_37/tf.concat_4/concat", "model_37/tf.nn.convolution_29/convolution/filter", "model_37/tf.math.add_41/Add/y"], "device": "/device:CPU:0", "attr": {"num_host_args": {"i": "0"}, "data_format": {"s": "TkhXQw=="}, "filter_format": {"s": "SFdJTw=="}, "fused_ops": {"list": {"s": ["Qmlhc0FkZA=="]}}, "num_args": {"i": "1"}, "strides": {"list": {"i": ["1", "1", "1", "1"]}}, "TArgs": {"list": {"type": ["DT_FLOAT"]}}, "padding": {"s": "U0FNRQ=="}, "use_cudnn_on_gpu": {"b": true}, "leakyrelu_alpha": {"f": 0.2}, "epsilon": {"f": 0.0}, "T": {"type": "DT_FLOAT"}, "explicit_paddings": {"list": {}}, "dilations": {"list": {"i": ["1", "1", "1", "1"]}}}}, {"name": "model_37/tf.math.sigmoid_29/Sigmoid", "op": "Sigmoid", "input": ["model_37/tf.math.add_41/Add"], "attr": {"T": {"type": "DT_FLOAT"}}}, {"name": "model_37/tf.math.multiply_131/Mul", "op": "Mul", "input": ["model_37/tf.math.add_41/Add", "model_37/tf.math.sigmoid_29/Sigmoid"], "attr": {"T": {"type": "DT_FLOAT"}}}, {"name": "model_37/tf.concat_5/concat", "op": "ConcatV2", "input": ["model_37/tf.strided_slice_6/StridedSlice", "model_37/tf.strided_slice_7/StridedSlice", "model_37/tf.math.multiply_131/Mul", "model_37/tf.concat_5/concat/axis"], "attr": {"N": {"i": "3"}, "Tidx": {"type": "DT_INT32"}, "T": {"type": "DT_FLOAT"}}}, {"name": "model_37/tf.math.add_42/Add", "op": "_FusedConv2D", "input": ["model_37/tf.concat_5/concat", "model_37/tf.nn.convolution_30/convolution/filter", "model_37/tf.math.add_42/Add/y"], "device": "/device:CPU:0", "attr": {"num_host_args": {"i": "0"}, "data_format": {"s": "TkhXQw=="}, "filter_format": {"s": "SFdJTw=="}, "fused_ops": {"list": {"s": ["Qmlhc0FkZA=="]}}, "num_args": {"i": "1"}, "strides": {"list": {"i": ["1", "1", "1", "1"]}}, "TArgs": {"list": {"type": ["DT_FLOAT"]}}, "padding": {"s": "U0FNRQ=="}, "use_cudnn_on_gpu": {"b": true}, "leakyrelu_alpha": {"f": 0.2}, "epsilon": {"f": 0.0}, "T": {"type": "DT_FLOAT"}, "explicit_paddings": {"list": {}}, "dilations": {"list": {"i": ["1", "1", "1", "1"]}}}}, {"name": "model_37/tf.math.sigmoid_30/Sigmoid", "op": "Sigmoid", "input": ["model_37/tf.math.add_42/Add"], "attr": {"T": {"type": "DT_FLOAT"}}}, {"name": "model_37/tf.math.multiply_135/Mul", "op": "Mul", "input": ["model_37/tf.math.add_42/Add", "model_37/tf.math.sigmoid_30/Sigmoid"], "attr": {"T": {"type": "DT_FLOAT"}}}, {"name": "model_37/tf.math.add_43/Add", "op": "_FusedConv2D", "input": ["model_37/tf.math.multiply_135/Mul", "model_37/tf.nn.convolution_31/convolution/filter", "model_37/tf.math.add_43/Add/y"], "device": "/device:CPU:0", "attr": {"num_host_args": {"i": "0"}, "data_format": {"s": "TkhXQw=="}, "filter_format": {"s": "SFdJTw=="}, "strides": {"list": {"i": ["1", "1", "1", "1"]}}, "num_args": {"i": "1"}, "fused_ops": {"list": {"s": ["Qmlhc0FkZA=="]}}, "TArgs": {"list": {"type": ["DT_FLOAT"]}}, "padding": {"s": "U0FNRQ=="}, "use_cudnn_on_gpu": {"b": true}, "leakyrelu_alpha": {"f": 0.2}, "epsilon": {"f": 0.0}, "T": {"type": "DT_FLOAT"}, "explicit_paddings": {"list": {}}, "dilations": {"list": {"i": ["1", "1", "1", "1"]}}}}, {"name": "model_37/tf.math.sigmoid_31/Sigmoid", "op": "Sigmoid", "input": ["model_37/tf.math.add_43/Add"], "attr": {"T": {"type": "DT_FLOAT"}}}, {"name": "model_37/tf.math.multiply_139/Mul", "op": "Mul", "input": ["model_37/tf.math.add_43/Add", "model_37/tf.math.sigmoid_31/Sigmoid"], "attr": {"T": {"type": "DT_FLOAT"}}}, {"name": "model_37/tf.compat.v1.nn.pool/max_pool", "op": "MaxPool", "input": ["model_37/tf.math.multiply_139/Mul"], "attr": {"ksize": {"list": {"i": ["1", "5", "5", "1"]}}, "data_format": {"s": "TkhXQw=="}, "T": {"type": "DT_FLOAT"}, "explicit_paddings": {"list": {}}, "padding": {"s": "U0FNRQ=="}, "strides": {"list": {"i": ["1", "1", "1", "1"]}}}}, {"name": "model_37/tf.compat.v1.nn.pool_1/max_pool", "op": "MaxPool", "input": ["model_37/tf.compat.v1.nn.pool/max_pool"], "attr": {"ksize": {"list": {"i": ["1", "5", "5", "1"]}}, "data_format": {"s": "TkhXQw=="}, "T": {"type": "DT_FLOAT"}, "explicit_paddings": {"list": {}}, "padding": {"s": "U0FNRQ=="}, "strides": {"list": {"i": ["1", "1", "1", "1"]}}}}, {"name": "model_37/tf.compat.v1.nn.pool_2/max_pool", "op": "MaxPool", "input": ["model_37/tf.compat.v1.nn.pool_1/max_pool"], "attr": {"padding": {"s": "U0FNRQ=="}, "data_format": {"s": "TkhXQw=="}, "T": {"type": "DT_FLOAT"}, "explicit_paddings": {"list": {}}, "ksize": {"list": {"i": ["1", "5", "5", "1"]}}, "strides": {"list": {"i": ["1", "1", "1", "1"]}}}}, {"name": "model_37/tf.concat_6/concat", "op": "ConcatV2", "input": ["model_37/tf.math.multiply_139/Mul", "model_37/tf.compat.v1.nn.pool/max_pool", "model_37/tf.compat.v1.nn.pool_1/max_pool", "model_37/tf.compat.v1.nn.pool_2/max_pool", "model_37/tf.concat_6/concat/axis"], "attr": {"N": {"i": "4"}, "Tidx": {"type": "DT_INT32"}, "T": {"type": "DT_FLOAT"}}}, {"name": "model_37/tf.math.add_44/Add", "op": "_FusedConv2D", "input": ["model_37/tf.concat_6/concat", "model_37/tf.nn.convolution_32/convolution/filter", "model_37/tf.math.add_44/Add/y"], "device": "/device:CPU:0", "attr": {"num_host_args": {"i": "0"}, "data_format": {"s": "TkhXQw=="}, "filter_format": {"s": "SFdJTw=="}, "fused_ops": {"list": {"s": ["Qmlhc0FkZA=="]}}, "num_args": {"i": "1"}, "strides": {"list": {"i": ["1", "1", "1", "1"]}}, "TArgs": {"list": {"type": ["DT_FLOAT"]}}, "padding": {"s": "U0FNRQ=="}, "use_cudnn_on_gpu": {"b": true}, "leakyrelu_alpha": {"f": 0.2}, "epsilon": {"f": 0.0}, "T": {"type": "DT_FLOAT"}, "explicit_paddings": {"list": {}}, "dilations": {"list": {"i": ["1", "1", "1", "1"]}}}}, {"name": "model_37/tf.math.sigmoid_32/Sigmoid", "op": "Sigmoid", "input": ["model_37/tf.math.add_44/Add"], "attr": {"T": {"type": "DT_FLOAT"}}}, {"name": "model_37/tf.math.multiply_143/Mul", "op": "Mul", "input": ["model_37/tf.math.add_44/Add", "model_37/tf.math.sigmoid_32/Sigmoid"], "attr": {"T": {"type": "DT_FLOAT"}}}, {"name": "model_37/tf.math.add_45/Add", "op": "_FusedConv2D", "input": ["model_37/tf.math.multiply_143/Mul", "model_37/tf.nn.convolution_33/convolution/filter", "model_37/tf.math.add_45/Add/y"], "device": "/device:CPU:0", "attr": {"num_host_args": {"i": "0"}, "data_format": {"s": "TkhXQw=="}, "filter_format": {"s": "SFdJTw=="}, "strides": {"list": {"i": ["1", "1", "1", "1"]}}, "num_args": {"i": "1"}, "fused_ops": {"list": {"s": ["Qmlhc0FkZA=="]}}, "TArgs": {"list": {"type": ["DT_FLOAT"]}}, "padding": {"s": "U0FNRQ=="}, "use_cudnn_on_gpu": {"b": true}, "leakyrelu_alpha": {"f": 0.2}, "epsilon": {"f": 0.0}, "T": {"type": "DT_FLOAT"}, "explicit_paddings": {"list": {}}, "dilations": {"list": {"i": ["1", "1", "1", "1"]}}}}, {"name": "model_37/tf.math.sigmoid_33/Sigmoid", "op": "Sigmoid", "input": ["model_37/tf.math.add_45/Add"], "attr": {"T": {"type": "DT_FLOAT"}}}, {"name": "model_37/tf.math.multiply_147/Mul", "op": "Mul", "input": ["model_37/tf.math.add_45/Add", "model_37/tf.math.sigmoid_33/Sigmoid"], "attr": {"T": {"type": "DT_FLOAT"}}}, {"name": "model_37/tf.split/split", "op": "SplitV", "input": ["model_37/tf.math.multiply_147/Mul", "model_37/tf.split/Const", "model_37/tf.split/split/split_dim"], "attr": {"num_split": {"i": "2"}, "T": {"type": "DT_FLOAT"}, "Tlen": {"type": "DT_INT32"}}}, {"name": "model_37/tf.math.add_46/Add", "op": "_FusedConv2D", "input": ["model_37/tf.split/split:1", "model_37/tf.nn.convolution_34/convolution/filter", "model_37/tf.math.add_46/Add/y"], "device": "/device:CPU:0", "attr": {"num_host_args": {"i": "0"}, "data_format": {"s": "TkhXQw=="}, "filter_format": {"s": "SFdJTw=="}, "strides": {"list": {"i": ["1", "1", "1", "1"]}}, "num_args": {"i": "1"}, "fused_ops": {"list": {"s": ["Qmlhc0FkZA=="]}}, "TArgs": {"list": {"type": ["DT_FLOAT"]}}, "padding": {"s": "U0FNRQ=="}, "use_cudnn_on_gpu": {"b": true}, "leakyrelu_alpha": {"f": 0.2}, "epsilon": {"f": 0.0}, "T": {"type": "DT_FLOAT"}, "explicit_paddings": {"list": {}}, "dilations": {"list": {"i": ["1", "1", "1", "1"]}}}}, {"name": "model_37/tf.compat.v1.transpose_42/transpose", "op": "Transpose", "input": ["model_37/tf.math.add_46/Add", "model_37/tf.compat.v1.transpose_42/transpose/perm"], "attr": {"Tperm": {"type": "DT_INT32"}, "T": {"type": "DT_FLOAT"}}}, {"name": "model_37/tf.reshape_2/Reshape", "op": "Reshape", "input": ["model_37/tf.compat.v1.transpose_42/transpose", "model_37/tf.reshape_2/Reshape/shape"], "attr": {"T": {"type": "DT_FLOAT"}, "Tshape": {"type": "DT_INT32"}}}, {"name": "model_37/tf.split_1/split", "op": "SplitV", "input": ["model_37/tf.reshape_2/Reshape", "model_37/tf.split_1/Const", "model_37/tf.split_1/split/split_dim"], "attr": {"num_split": {"i": "3"}, "T": {"type": "DT_FLOAT"}, "Tlen": {"type": "DT_INT32"}}}, {"name": "model_37/tf.linalg.matmul_6/ArithmeticOptimizer/FoldTransposeIntoMatMul_MatMul", "op": "BatchMatMulV2", "input": ["model_37/tf.split_1/split", "model_37/tf.split_1/split:1"], "attr": {"adj_x": {"b": true}, "grad_y": {"b": false}, "T": {"type": "DT_FLOAT"}, "adj_y": {"b": false}, "grad_x": {"b": false}}}, {"name": "model_37/tf.reshape_5/Reshape", "op": "Reshape", "input": ["model_37/tf.split_1/split:2", "model_37/tf.reshape_5/Reshape/shape"], "attr": {"T": {"type": "DT_FLOAT"}, "Tshape": {"type": "DT_INT32"}}}, {"name": "model_37/tf.math.multiply_150/Mul", "op": "Mul", "input": ["model_37/tf.linalg.matmul_6/ArithmeticOptimizer/FoldTransposeIntoMatMul_MatMul", "model_37/tf.math.multiply_150/Mul/y"], "attr": {"T": {"type": "DT_FLOAT"}}}, {"name": "model_37/tf.compat.v1.transpose_58/transpose", "op": "Transpose", "input": ["model_37/tf.reshape_5/Reshape", "model_37/tf.compat.v1.transpose_58/transpose/perm"], "attr": {"Tperm": {"type": "DT_INT32"}, "T": {"type": "DT_FLOAT"}}}, {"name": "model_37/tf.nn.softmax_1/wa/model.10/m/m.0/attn/Softmax", "op": "Softmax", "input": ["model_37/tf.math.multiply_150/Mul"], "attr": {"T": {"type": "DT_FLOAT"}}}, {"name": "model_37/tf.split_2/split", "op": "Split", "input": ["model_37/tf.split_2/split/split_dim", "model_37/tf.compat.v1.transpose_58/transpose"], "attr": {"num_split": {"i": "128"}, "T": {"type": "DT_FLOAT"}}}, {"name": "model_37/tf.linalg.matmul_8/ArithmeticOptimizer/FoldTransposeIntoMatMul_MatMul", "op": "BatchMatMulV2", "input": ["model_37/tf.split_1/split:2", "model_37/tf.nn.softmax_1/wa/model.10/m/m.0/attn/Softmax"], "attr": {"grad_y": {"b": false}, "adj_x": {"b": false}, "T": {"type": "DT_FLOAT"}, "adj_y": {"b": true}, "grad_x": {"b": false}}}, {"name": "model_37/tf.nn.convolution_35/convolution", "op": "Conv2D", "input": ["model_37/tf.split_2/split", "model_37/tf.nn.convolution_35/convolution/filter"], "device": "/device:CPU:0", "attr": {"padding": {"s": "U0FNRQ=="}, "data_format": {"s": "TkhXQw=="}, "strides": {"list": {"i": ["1", "1", "1", "1"]}}, "use_cudnn_on_gpu": {"b": true}, "T": {"type": "DT_FLOAT"}, "explicit_paddings": {"list": {}}, "dilations": {"list": {"i": ["1", "1", "1", "1"]}}}}, {"name": "model_37/tf.nn.convolution_36/convolution", "op": "Conv2D", "input": ["model_37/tf.split_2/split:1", "model_37/tf.nn.convolution_36/convolution/filter"], "device": "/device:CPU:0", "attr": {"padding": {"s": "U0FNRQ=="}, "data_format": {"s": "TkhXQw=="}, "strides": {"list": {"i": ["1", "1", "1", "1"]}}, "use_cudnn_on_gpu": {"b": true}, "T": {"type": "DT_FLOAT"}, "explicit_paddings": {"list": {}}, "dilations": {"list": {"i": ["1", "1", "1", "1"]}}}}, {"name": "model_37/tf.nn.convolution_37/convolution", "op": "Conv2D", "input": ["model_37/tf.split_2/split:2", "model_37/tf.nn.convolution_37/convolution/filter"], "device": "/device:CPU:0", "attr": {"padding": {"s": "U0FNRQ=="}, "data_format": {"s": "TkhXQw=="}, "strides": {"list": {"i": ["1", "1", "…
"float32"}}, {"name": "model_37/tf.nn.convolution_61/convolution/filter", "shape": [3, 3, 1, 1], "dtype": "float32", "quantization": {"dtype": "uint8", "min": -0.1069352027101844, "scale": 0.0006110583012010537, "original_dtype": "float32"}}, {"name": "model_37/tf.nn.convolution_62/convolution/filter", "shape": [3, 3, 1, 1], "dtype": "float32", "quantization": {"dtype": "uint8", "min": -0.18534928564639652, "scale": 0.0008701844396544438, "original_dtype": "float32"}}, {"name": "model_37/tf.nn.convolution_63/convolution/filter", "shape": [3, 3, 1, 1], "dtype": "float32", "quantization": {"dtype": "uint8", "min": -0.2028440731413224, "scale": 0.001073249064239801, "original_dtype": "float32"}}, {"name": "model_37/tf.nn.convolution_64/convolution/filter", "shape": [3, 3, 1, 1], "dtype": "float32", "quantization": {"dtype": "uint8", "min": -0.23176284315539342, "scale": 0.0015049535269830742, "original_dtype": "float32"}}, {"name": "model_37/tf.nn.convolution_65/convolution/filter", "shape": [3, 3, 1, 1], "dtype": "float32", "quantization": {"dtype": "uint8", "min": -0.37711824774742125, "scale": 0.002016675121643964, "original_dtype": "float32"}}, {"name": "model_37/tf.nn.convolution_66/convolution/filter", "shape": [3, 3, 1, 1], "dtype": "float32", "quantization": {"dtype": "uint8", "min": -0.8761491621241849, "scale": 0.005123679310667748, "original_dtype": "float32"}}, {"name": "model_37/tf.nn.convolution_67/convolution/filter", "shape": [3, 3, 1, 1], "dtype": "float32", "quantization": {"dtype": "uint8", "min": -0.3277250647544861, "scale": 0.001606495415463167, "original_dtype": "float32"}}, {"name": "model_37/tf.nn.convolution_68/convolution/filter", "shape": [3, 3, 1, 1], "dtype": "float32", "quantization": {"dtype": "uint8", "min": -0.7571171339820413, "scale": 0.005486356043348125, "original_dtype": "float32"}}, {"name": "model_37/tf.nn.convolution_69/convolution/filter", "shape": [3, 3, 1, 1], "dtype": "float32", "quantization": {"dtype": "uint8", "min": -1.599411729737824, "scale": 0.009635010420107374, "original_dtype": "float32"}}, {"name": "model_37/tf.nn.convolution_70/convolution/filter", "shape": [3, 3, 1, 1], "dtype": "float32", "quantization": {"dtype": "uint8", "min": -0.24277726955273574, "scale": 0.0017983501448350795, "original_dtype": "float32"}}, {"name": "model_37/tf.nn.convolution_71/convolution/filter", "shape": [3, 3, 1, 1], "dtype": "float32", "quantization": {"dtype": "uint8", "min": -0.1490733738659936, "scale": 0.0006453392808051671, "original_dtype": "float32"}}, {"name": "model_37/tf.nn.convolution_72/convolution/filter", "shape": [3, 3, 1, 1], "dtype": "float32", "quantization": {"dtype": "uint8", "min": -0.20817056089347485, "scale": 0.0009170509290461447, "original_dtype": "float32"}}, {"name": "model_37/tf.nn.convolution_73/convolution/filter", "shape": [3, 3, 1, 1], "dtype": "float32", "quantization": {"dtype": "uint8", "min": -1.519102788438984, "scale": 0.01287375244439817, "original_dtype": "float32"}}, {"name": "model_37/tf.nn.convolution_74/convolution/filter", "shape": [3, 3, 1, 1], "dtype": "float32", "quantization": {"dtype": "uint8", "min": -0.2534081706813737, "scale": 0.0013772183189205095, "original_dtype": "float32"}}, {"name": "model_37/tf.nn.convolution_75/convolution/filter", "shape": [3, 3, 1, 1], "dtype": "float32", "quantization": {"dtype": "uint8", "min": -0.19320507810688486, "scale": 0.0007790527343019551, "original_dtype": "float32"}}, {"name": "model_37/tf.nn.convolution_76/convolution/filter", "shape": [3, 3, 1, 1], "dtype": "float32", "quantization": {"dtype": "uint8", "min": -0.1480141419113851, "scale": 0.0006352538279458588, "original_dtype": "float32"}}, {"name": "model_37/tf.nn.convolution_77/convolution/filter", "shape": [3, 3, 1, 1], "dtype": "float32", "quantization": {"dtype": "uint8", "min": -1.2346370079938103, "scale": 0.008230913386625401, "original_dtype": "float32"}}, {"name": "model_37/tf.nn.convolution_78/convolution/filter", "shape": [3, 3, 1, 1], "dtype": "float32", "quantization": {"dtype": "uint8", "min": -1.4444873781765208, "scale": 0.01267094191382913, "original_dtype": "float32"}}, {"name": "model_37/tf.nn.convolution_79/convolution/filter", "shape": [3, 3, 1, 1], "dtype": "float32", "quantization": {"dtype": "uint8", "min": -0.2291910839577516, "scale": 0.0009836527208487193, "original_dtype": "float32"}}, {"name": "model_37/tf.nn.convolution_80/convolution/filter", "shape": [3, 3, 1, 1], "dtype": "float32", "quantization": {"dtype": "uint8", "min": -0.2969573655549218, "scale": 0.0019282945815254661, "original_dtype": "float32"}}, {"name": "model_37/tf.nn.convolution_81/convolution/filter", "shape": [3, 3, 1, 1], "dtype": "float32", "quantization": {"dtype": "uint8", "min": -0.13727863579988478, "scale": 0.0006933264434337616, "original_dtype": "float32"}}, {"name": "model_37/tf.nn.convolution_82/convolution/filter", "shape": [3, 3, 1, 1], "dtype": "float32", "quantization": {"dtype": "uint8", "min": -0.3221159480366052, "scale": 0.0025363460475323245, "original_dtype": "float32"}}, {"name": "model_37/tf.nn.convolution_83/convolution/filter", "shape": [3, 3, 1, 1], "dtype": "float32", "quantization": {"dtype": "uint8", "min": -1.5496889072306015, "scale": 0.010990701469720579, "original_dtype": "float32"}}, {"name": "model_37/tf.nn.convolution_84/convolution/filter", "shape": [3, 3, 1, 1], "dtype": "float32", "quantization": {"dtype": "uint8", "min": -0.20705204928184257, "scale": 0.0008810725501355003, "original_dtype": "float32"}}, {"name": "model_37/tf.nn.convolution_85/convolution/filter", "shape": [3, 3, 1, 1], "dtype": "float32", "quantization": {"dtype": "uint8", "min": -0.26932337389272804, "scale": 0.0014717124256433225, "original_dtype": "float32"}}, {"name": "model_37/tf.nn.convolution_86/convolution/filter", "shape": [3, 3, 1, 1], "dtype": "float32", "quantization": {"dtype": "uint8", "min": -2.273391128988827, "scale": 0.013217390284818761, "original_dtype": "float32"}}, {"name": "model_37/tf.nn.convolution_87/convolution/filter", "shape": [3, 3, 1, 1], "dtype": "float32", "quantization": {"dtype": "uint8", "min": -1.6887560935581432, "scale": 0.008360178680980906, "original_dtype": "float32"}}, {"name": "model_37/tf.nn.convolution_88/convolution/filter", "shape": [3, 3, 1, 1], "dtype": "float32", "quantization": {"dtype": "uint8", "min": -0.6312383277743471, "scale": 0.004746152840408625, "original_dtype": "float32"}}, {"name": "model_37/tf.nn.convolution_89/convolution/filter", "shape": [3, 3, 1, 1], "dtype": "float32", "quantization": {"dtype": "uint8", "min": -1.1862696030560662, "scale": 0.009267731273875517, "original_dtype": "float32"}}, {"name": "model_37/tf.nn.convolution_90/convolution/filter", "shape": [3, 3, 1, 1], "dtype": "float32", "quantization": {"dtype": "uint8", "min": -0.22263296819200704, "scale": 0.0012099617836522122, "original_dtype": "float32"}}, {"name": "model_37/tf.nn.convolution_91/convolution/filter", "shape": [3, 3, 1, 1], "dtype": "float32", "quantization": {"dtype": "uint8", "min": -0.2774719355737462, "scale": 0.001622642898092083, "original_dtype": "float32"}}, {"name": "model_37/tf.nn.convolution_92/convolution/filter", "shape": [3, 3, 1, 1], "dtype": "float32", "quantization": {"dtype": "uint8", "min": -1.9313289628309362, "scale": 0.012146723036672556, "original_dtype": "float32"}}, {"name": "model_37/tf.nn.convolution_93/convolution/filter", "shape": [3, 3, 1, 1], "dtype": "float32", "quantization": {"dtype": "uint8", "min": -0.22498598057849734, "scale": 0.0011420608151192758, "original_dtype": "float32"}}, {"name": "model_37/tf.nn.convolution_94/convolution/filter", "shape": [3, 3, 1, 1], "dtype": "float32", "quantization": {"dtype": "uint8", "min": -0.25188962899002376, "scale": 0.0013051276113472733, "original_dtype": "float32"}}, {"name": "model_37/tf.nn.convolution_95/convolution/filter", "shape": [3, 3, 1, 1], "dtype": "float32", "quantization": {"dtype": "uint8", "min": -1.977984906645382, "scale": 0.015333216330584357, "original_dtype": "float32"}}, {"name": "model_37/tf.nn.convolution_96/convolution/filter", "shape": [3, 3, 1, 1], "dtype": "float32", "quantization": {"dtype": "uint8", "min": -0.17143880961572425, "scale": 0.0007585788036093993, "original_dtype": "float32"}}, {"name": "model_37/tf.nn.convolution_97/convolution/filter", "shape": [3, 3, 1, 1], "dtype": "float32", "quantization": {"dtype": "uint8", "min": -0.13259489746654735, "scale": 0.0007366383192585964, "original_dtype": "float32"}}, {"name": "model_37/tf.nn.convolution_98/convolution/filter", "shape": [3, 3, 1, 1], "dtype": "float32", "quantization": {"dtype": "uint8", "min": -2.6558763326383104, "scale": 0.014673349904079064, "original_dtype": "float32"}}, {"name": "model_37/tf.nn.convolution_99/convolution/filter", "shape": [3, 3, 1, 1], "dtype": "float32", "quantization": {"dtype": "uint8", "min": -0.5785238753346835, "scale": 0.0033831805575127694, "original_dtype": "float32"}}, {"name": "model_37/tf.nn.convolution_100/convolution/filter", "shape": [3, 3, 1, 1], "dtype": "float32", "quantization": {"dtype": "uint8", "min": -0.39091246975403204, "scale": 0.0021838685461119107, "original_dtype": "float32"}}, {"name": "model_37/tf.nn.convolution_101/convolution/filter", "shape": [3, 3, 1, 1], "dtype": "float32", "quantization": {"dtype": "uint8", "min": -0.28344188214224925, "scale": 0.0012597416984099967, "original_dtype": "float32"}}, {"name": "model_37/tf.nn.convolution_102/convolution/filter", "shape": [3, 3, 1, 1], "dtype": "float32", "quantization": {"dtype": "uint8", "min": -0.6394438780990301, "scale": 0.005156805468540565, "original_dtype": "float32"}}, {"name": "model_37/tf.nn.convolution_103/convolution/filter", "shape": [3, 3, 1, 1], "dtype": "float32", "quantization": {"dtype": "uint8", "min": -0.6966020142330843, "scale": 0.004738789212469961, "original_dtype": "float32"}}, {"name": "model_37/tf.nn.convolution_104/convolution/filter", "shape": [3, 3, 1, 1], "dtype": "float32", "quantization": {"dtype": "uint8", "min": -0.22541113828911502, "scale": 0.0010582682548784742, "original_dtype": "float32"}}, {"name": "model_37/tf.nn.convolution_105/convolution/filter", "shape": [3, 3, 1, 1], "dtype": "float32", "quantization": {"dtype": "uint8", "min": -0.7777722442851347, "scale": 0.0037940109477323644, "original_dtype": "float32"}}, {"name": "model_37/tf.nn.convolution_106/convolution/filter", "shape": [3, 3, 1, 1], "dtype": "float32", "quantization": {"dtype": "uint8", "min": -0.8644728080899108, "scale": 0.005613459792791629, "original_dtype": "float32"}}, {"name": "model_37/tf.nn.convolution_107/convolution/filter", "shape": [3, 3, 1, 1], "dtype": "float32", "quantization": {"dtype": "uint8", "min": -0.6803734381409252, "scale": 0.003525250974823447, "original_dtype": "float32"}}, {"name": "model_37/tf.nn.convolution_108/convolution/filter", "shape": [3, 3, 1, 1], "dtype": "float32", "quantization": {"dtype": "uint8", "min": -0.4036106492958817, "scale": 0.003880871627845016, "original_dtype": "float32"}}, {"name": "model_37/tf.nn.convolution_109/convolution/filter", "shape": [3, 3, 1, 1], "dtype": "float32", "quantization": {"dtype": "uint8", "min": -0.5823563126956716, "scale": 0.0046588505015653725, "original_dtype": "float32"}}, {"name": "model_37/tf.nn.convolution_110/convolution/filter", "shape": [3, 3, 1, 1], "dtype": "float32", "quantization": {"dtype": "uint8", "min": -0.8130748755791608, "scale": 0.0050189807134516096, "original_dtype": "float32"}}, {"name": "model_37/tf.nn.convolution_111/convolution/filter", "shape": [3, 3, 1, 1], "dtype": "float32", "quantization": {"dtype": "uint8", "min": -0.9229041919988744, "scale": 0.005878370649674359, "original_dtype": "float32"}}, {"name": "model_37/tf.nn.convolution_112/convolution/filter", "shape": [3, 3, 1, 1], "dtype": "float32", "quantization": {"dtype": "uint8", "min": -0.4592762484269984, "scale": 0.0029440785155576818, "original_dtype": "float32"}}, {"name": "model_37/tf.nn.convolution_113/convolution/filter", "shape": [3, 3, 1, 1], "dtype": "float32", "quantization": {"dtype": "uint8", "min": -1.3911147276560467, "scale": 0.011690039728202073, "original_dtype": "float32"}}, {"name": "model_37/tf.nn.convolution_114/convolution/filter", "shape": [3, 3, 1, 1], "dtype": "float32", "quantization": {"dtype": "uint8", "min": -0.8641366837071438, "scale": 0.00583876137639962, "original_dtype": "float32"}}, {"name": "model_37/tf.nn.convolution_115/convolution/filter", "shape": [3, 3, 1, 1], "dtype": "float32", "quantization": {"dtype": "uint8", "min": -1.0378771936192233, "scale": 0.007308994321262135, "original_dtype": "float32"}}, {"name": "model_37/tf.nn.convolution_116/convolution/filter", "shape": [3, 3, 1, 1], "dtype": "float32", "quantization": {"dtype": "uint8", "min": -0.33921360899420344, "scale": 0.0027578342194650688, "original_dtype": "float32"}}, {"name": "model_37/tf.nn.convolution_117/convolution/filter", "shape": [3, 3, 1, 1], "dtype": "float32", "quantization": {"dtype": "uint8", "min": -0.7602827969719382, "scale": 0.004751767481074614, "original_dtype": "float32"}}, {"name": "model_37/tf.nn.convolution_118/convolution/filter", "shape": [3, 3, 1, 1], "dtype": "float32", "quantization": {"dtype": "uint8", "min": -0.7788672124638277, "scale": 0.006037730329176959, "original_dtype": "float32"}}, {"name": "model_37/tf.nn.convolution_119/convolution/filter", "shape": [3, 3, 1, 1], "dtype": "float32", "quantization": {"dtype": "uint8", "min": -0.9668684522310892, "scale": 0.004786477486292521, "original_dtype": "float32"}}, {"name": "model_37/tf.nn.convolution_120/convolution/filter", "shape": [3, 3, 1, 1], "dtype": "float32", "quantization": {"dtype": "uint8", "min": -0.6262755225686466, "scale": 0.005091670915192249, "original_dtype": "float32"}}, {"name": "model_37/tf.nn.convolution_121/convolution/filter", "shape": [3, 3, 1, 1], "dtype": "float32", "quantization": {"dtype": "uint8", "min": -0.6091104170855354, "scale": 0.0039045539556765087, "original_dtype": "float32"}}, {"name": "model_37/tf.nn.convolution_122/convolution/filter", "shape": [3, 3, 1, 1], "dtype": "float32", "quantization": {"dtype": "uint8", "min": -0.07498709302322537, "scale": 0.0010712441860460768, "original_dtype": "float32"}}, {"name": "model_37/tf.nn.convolution_123/convolution/filter", "shape": [3, 3, 1, 1], "dtype": "float32", "quantization": {"dtype": "uint8", "min": -0.5566509255591561, "scale": 0.003041808336388831, "original_dtype": "float32"}}, {"name": "model_37/tf.nn.convolution_124/convolution/filter", "shape": [3, 3, 1, 1], "dtype": "float32", "quantization": {"dtype": "uint8", "min": -1.2631396008472817, "scale": 0.008149287747401817, "original_dtype": "float32"}}, {"name": "model_37/tf.nn.convolution_125/convolution/filter", "shape": [3, 3, 1, 1], "dtype": "float32", "quantization": {"dtype": "uint8", "min": -0.5960488144089194, "scale": 0.004768390515271355, "original_dtype": "float32"}}, {"name": "model_37/tf.nn.convolution_126/convolution/filter", "shape": [3, 3, 1, 1], "dtype": "float32", "quantization": {"dtype": "uint8", "min": -0.4916799297519759, "scale": 0.004351149820813946, "original_dtype": "float32"}}, {"name": "model_37/tf.nn.convolution_127/convolution/filter", "shape": [3, 3, 1, 1], "dtype": "float32", "quantization": {"dtype": "uint8", "min": -0.4675278371455623, "scale": 0.004250253064959657, "original_dtype": "float32"}}, {"name": "model_37/tf.nn.convolution_128/convolution/filter", "shape": [3, 3, 1, 1], "dtype": "float32", "quantization": {"dtype": "uint8", "min": -0.4790289191638722, "scale": 0.0026612717731326232, "original_dtype": "float32"}}, {"name": "model_37/tf.nn.convolution_129/convolution/filter", "shape": [3, 3, 1, 1], "dtype": "float32", "quantization": {"dtype": "uint8", "min": -0.9095911960975797, "scale": 0.007106181219512341, "original_dtype": "float32"}}, {"name": "model_37/tf.nn.convolution_130/convolution/filter", "shape": [3, 3, 1, 1], "dtype": "float32", "quantization": {"dtype": "uint8", "min": -0.6524864322998944, "scale": 0.003686364024293189, "original_dtype": "float32"}}, {"name": "model_37/tf.nn.convolution_131/convolution/filter", "shape": [3, 3, 1, 1], "dtype": "float32", "quantization": {"dtype": "uint8", "min": -0.503154989083608, "scale": 0.003446267048517863, "original_dtype": "float32"}}, {"name": "model_37/tf.nn.convolution_132/convolution/filter", "shape": [3, 3, 1, 1], "dtype": "float32", "quantization": {"dtype": "uint8", "min": -1.0064802010854086, "scale": 0.005135103066762289, "original_dtype": "float32"}}, {"name": "model_37/tf.nn.convolution_133/convolution/filter", "shape": [3, 3, 1, 1], "dtype": "float32", "quantization": {"dtype": "uint8", "min": -0.4986703539595884, "scale": 0.002681023408384884, "original_dtype": "float32"}}, {"name": "model_37/tf.nn.convolution_134/convolution/filter", "shape": [3, 3, 1, 1], "dtype": "float32", "quantization": {"dtype": "uint8", "min": -0.4873219395385069, "scale": 0.0024124848492005292, "original_dtype": "float32"}}, {"name": "model_37/tf.nn.convolution_135/convolution/filter", "shape": [3, 3, 1, 1], "dtype": "float32", "quantization": {"dtype": "uint8", "min": -0.557113914863736, "scale": 0.0031298534542906517, "original_dtype": "float32"}}, {"name": "model_37/tf.nn.convolution_136/convolution/filter", "shape": [3, 3, 1, 1], "dtype": "float32", "quantization": {"dtype": "uint8", "min": -0.9453324076007393, "scale": 0.005660673099405625, "original_dtype": "float32"}}, {"name": "model_37/tf.nn.convolution_137/convolution/filter", "shape": [3, 3, 1, 1], "dtype": "float32", "quantization": {"dtype": "uint8", "min": -0.42724984253154086, "scale": 0.0034455632462221035, "original_dtype": "float32"}}, {"name": "model_37/tf.nn.convolution_138/convolution/filter", "shape": [3, 3, 1, 1], "dtype": "float32", "quantization": {"dtype": "uint8", "min": -0.6670239200779037, "scale": 0.004506918378904754, "original_dtype": "float32"}}, {"name": "model_37/tf.nn.convolution_139/convolution/filter", "shape": [3, 3, 1, 1], "dtype": "float32", "quantization": {"dtype": "uint8", "min": -0.5295085208088744, "scale": 0.0028165346851535874, "original_dtype": "float32"}}, {"name": "model_37/tf.nn.convolution_140/convolution/filter", "shape": [3, 3, 1, 1], "dtype": "float32", "quantization": {"dtype": "uint8", "min": -1.0711006276747759, "scale": 0.008239235597498276, "original_dtype": "float32"}}, {"name": "model_37/tf.nn.convolution_141/convolution/filter", "shape": [3, 3, 1, 1], "dtype": "float32", "quantization": {"dtype": "uint8", "min": -0.39608492851257326, "scale": 0.002912389180239509, "original_dtype": "float32"}}, {"name": "model_37/tf.nn.convolution_142/convolution/filter", "shape": [3, 3, 1, 1], "dtype": "float32", "quantization": {"dtype": "uint8", "min": -0.280828058719635, "scale": 0.0016519297571743236, "original_dtype": "float32"}}, {"name": "model_37/tf.nn.convolution_143/convolution/filter", "shape": [3, 3, 1, 1], "dtype": "float32", "quantization": {"dtype": "uint8", "min": -0.866976241270701, "scale": 0.00509986024276883, "original_dtype": "float32"}}, {"name": "model_37/tf.nn.convolution_144/convolution/filter", "shape": [3, 3, 1, 1], "dtype": "float32", "quantization": {"dtype": "uint8", "min": -0.6247399989880768, "scale": 0.0033769729675031178, "original_dtype": "float32"}}, {"name": "model_37/tf.nn.convolution_145/convolution/filter", "shape": [3, 3, 1, 1], "dtype": "float32", "quantization": {"dtype": "uint8", "min": -1.1282504072376325, "scale": 0.0061317956915088725, "original_dtype": "float32"}}, {"name": "model_37/tf.nn.convolution_146/convolution/filter", "shape": [3, 3, 1, 1], "dtype": "float32", "quantization": {"dtype": "uint8", "min": -0.5640601850023457, "scale": 0.004209404365689146, "original_dtype": "float32"}}, {"name": "model_37/tf.nn.convolution_147/convolution/filter", "shape": [3, 3, 1, 1], "dtype": "float32", "quantization": {"dtype": "uint8", "min": -1.383798508083119, "scale": 0.009413595293082442, "original_dtype": "float32"}}, {"name": "model_37/tf.nn.convolution_148/convolution/filter", "shape": [3, 3, 1, 1], "dtype": "float32", "quantization": {"dtype": "uint8", "min": -0.815794641831342, "scale": 0.004248930426204906, "original_dtype": "float32"}}, {"name": "model_37/tf.nn.convolution_149/convolution/filter", "shape": [3, 3, 1, 1], "dtype": "float32", "quantization": {"dtype": "uint8", "min": -1.3021052262362312, "scale": 0.007614650445825913, "original_dtype": "float32"}}, {"name": "model_37/tf.nn.convolution_150/convolution/filter", "shape": [3, 3, 1, 1], "dtype": "float32", "quantization": {"dtype": "uint8", "min": -1.1588420119940066, "scale": 0.007242762574962541, "original_dtype": "float32"}}, {"name": "model_37/tf.nn.convolution_151/convolution/filter", "shape": [3, 3, 1, 1], "dtype": "float32", "quantization": {"dtype": "uint8", "min": -0.7667441382127649, "scale": 0.004014367215773638, "original_dtype": "float32"}}, {"name": "model_37/tf.nn.convolution_152/convolution/filter", "shape": [3, 3, 1, 1], "dtype": "float32", "quantization": {"dtype": "uint8", "min": -1.4472019525135265, "scale": 0.008463169312944599, "original_dtype": "float32"}}, {"name": "model_37/tf.nn.convolution_153/convolution/filter", "shape": [3, 3, 1, 1], "dtype": "float32", "quantization": {"dtype": "uint8", "min": -0.3598361441902086, "scale": 0.002626541198468676, "original_dtype": "float32"}}, {"name": "model_37/tf.nn.convolution_154/convolution/filter", "shape": [3, 3, 1, 1], "dtype": "float32", "quantization": {"dtype": "uint8", "min": -1.4187154639000985, "scale": 0.007970311594944374, "original_dtype": "float32"}}, {"name": "model_37/tf.nn.convolution_155/convolution/filter", "shape": [3, 3, 1, 1], "dtype": "float32", "quantization": {"dtype": "uint8", "min": -0.9431522710650575, "scale": 0.007730756320205389, "original_dtype": "float32"}}, {"name": "model_37/tf.nn.convolution_156/convolution/filter", "shape": [3, 3, 1, 1], "dtype": "float32", "quantization": {"dtype": "uint8", "min": -0.444958745732027, "scale": 0.003224338737188601, "original_dtype": "float32"}}, {"name": "model_37/tf.nn.convolution_157/convolution/filter", "shape": [3, 3, 1, 1], "dtype": "float32", "quantization": {"dtype": "uint8", "min": -0.720742554290622, "scale": 0.003982003062379127, "original_dtype": "float32"}}, {"name": "model_37/tf.nn.convolution_158/convolution/filter", "shape": [3, 3, 1, 1], "dtype": "float32", "quantization": {"dtype": "uint8", "min": -0.9457169366817848, "scale": 0.0068037189689337035, "original_dtype": "float32"}}, {"name": "model_37/tf.nn.convolution_159/convolution/filter", "shape": [3, 3, 1, 1], "dtype": "float32", "quantization": {"dtype": "uint8", "min": -0.33996363702942345, "scale": 0.0027639320083692963, "original_dtype": "float32"}}, {"name": "model_37/tf.nn.convolution_160/convolution/filter", "shape": [3, 3, 1, 1], "dtype": "float32", "quantization": {"dtype": "uint8", "min": -0.8372457981109619, "scale": 0.007035678975722369, "original_dtype": "float32"}}, {"name": "model_37/tf.nn.convolution_161/convolution/filter", "shape": [3, 3, 1, 1], "dtype": "float32", "quantization": {"dtype": "uint8", "min": -0.8312914020874922, "scale": 0.004618285567152734, "original_dtype": "float32"}}, {"name": "model_37/tf.split_2/split/split_dim", "shape": [], "dtype": "int32"}, {"name": "model_37/tf.strided_slice_6/ones_like/tensor", "shape": [4], "dtype": "int32"}, {"name": "model_37/tf.strided_slice_6/StridedSlice/end", "shape": [4], "dtype": "int32"}, {"name": "model_37/tf.strided_slice_6/ones_like", "shape": [4], "dtype": "int32"}, {"name": "model_37/tf.nn.convolution_23/convolution/filter", "shape": [1, 1, 128, 64], "dtype": "float32", "quantization": {"dtype": "uint8", "min": -0.8281375994869307, "scale": 0.005484354963489607, "original_dtype": "float32"}}, {"name": "model_37/tf.math.add_31/Add/y", "shape": [64], "dtype": "float32", "quantization": {"dtype": "uint8", "min": -1.3820241549435783, "scale": 0.011235968739378686, "original_dtype": "float32"}}, {"name": "model_37/tf.nn.convolution_25/convolution/filter", "shape": [3, 3, 64, 64], "dtype": "float32", "quantization": {"dtype": "uint8", "min": -0.48228859387192075, "scale": 0.00513072972204171, "original_dtype": "float32"}}, {"name": "model_37/tf.math.add_33/Add/y", "shape": [64], "dtype": "float32", "quantization": {"dtype": "uint8", "min": -1.6965186123754465, "scale": 0.015013439047570323, "original_dtype": "float32"}}, {"name": "model_37/tf.nn.convolution_26/convolution/filter", "shape": [3, 3, 64, 64], "dtype": "float32", "quantization": {"dtype": "uint8", "min": -0.34188251284991994, "scale": 0.003108022844090181, "original_dtype": "float32"}}, {"name": "model_37/tf.math.add_34/Add/y", "shape": [64], "dtype": "float32", "quantization": {"dtype": "uint8", "min": -1.1520576168509091, "scale": 0.009763200142804315, "original_dtype": "float32"}}, {"name": "model_37/tf.nn.convolution_27/convolution/filter", "shape": [3, 3, 64, 64], "dtype": "float32", "quantization": {"dtype": "uint8", "min": -0.18309369367711684, "scale": 0.0019072259758033004, "original_dtype": "float32"}}, {"name": "model_37/tf.math.add_37/Add/y", "shape": [64], "dtype": "float32", "quantization": {"dtype": "uint8", "min": -2.8032113711039224, "scale": 0.021563164393107095, "original_dtype": "float32"}}, {"name": "model_37/tf.nn.convolution_28/convolution/filter", "shape": [3, 3, 64, 64], "dtype": "float32", "quantization": {"dtype": "uint8", "min": -0.42744593339807846, "scale": 0.0033924280428418926, "original_dtype": "float32"}}, {"name": "model_37/tf.math.add_38/Add/y", "shape": [64], "dtype": "float32", "quantization": {"dtype": "uint8", "min": -1.5455365564308914, "scale": 0.014580533551234825, "original_dtype": "float32"}}, {"name": "model_37/tf.compat.v1.pad_4/Pad/paddings", "shape": [4, 2], "dtype": "int32"}, {"name": "model_37/tf.nn.convolution_21/convolution/filter", "shape": [3, 3, 128, 256], "dtype": "float32", "quantization": {"dtype": "uint8", "min": -0.15859793605757697, "scale": 0.0015702765946294748, "original_dtype": "float32"}}, {"name": "model_37/tf.math.add_29/Add/y", "shape": [256], "dtype": "float32", "quantization": {"dtype": "uint8", "min": -2.8417479010189277, "scale": 0.015787488338994043, "original_dtype": "float32"}}, {"name": "model_37/tf.nn.convolution_22/convolution/filter", "shape": [1, 1, 256, 256], "dtype": "float32", "quantization": {"dtype": "uint8", "min": -0.6447888000338685, "scale": 0.0073271454549303245, "original_dtype": "float32"}}, {"name": "model_37/tf.math.add_30/Add/y", "shape": [256], "dtype": "float32", "quantization": {"dtype": "uint8", "min": -2.969729044858147, "scale": 0.017998357847625133, "original_dtype": "float32"}}, {"name": "model_37/tf.strided_slice_7/ones_like/tensor", "shape": [4], "dtype": "int32"}, {"name": "model_37/tf.strided_slice_7/StridedSlice/end", "shape": [4], "dtype": "int32"}, {"name": "model_37/tf.strided_slice_7/ones_like", "shape": [4], "dtype": "int32"}, {"name": "model_37/tf.nn.convolution_24/convolution/filter", "shape": [1, 1, 128, 64], "dtype": "float32", "quantization": {"dtype": "uint8", "min": -0.5999368705001532, "scale": 0.0065210529402190565, "original_dtype": "float32"}}, {"name": "model_37/tf.math.add_32/Add/y", "shape": [64], "dtype": "float32", "quantization": {"dtype": "uint8", "min": -1.8568759209969463, "scale": 0.00952244062049716, "original_dtype": "float32"}}, {"name": "model_37/tf.concat_4/concat/axis", "shape": [], "dtype": "int32"}, {"name": "model_37/tf.nn.convolution_29/convolution/filter", "shape": [1, 1, 128, 128], "dtype": "float32", "quantization": {"dtype": "uint8", "min": -0.3345844205688028, "scale": 0.002934951057621077, "original_dtype": "float32"}}, {"name": "model_37/tf.math.add_41/Add/y", "shape": [128], "dtype": "float32", "quantization": {"dtype": "uint8", "min": -3.354624579934513, "scale": 0.025034511790556067, "original_dtype": "float32"}}, {"name": "model_37/tf.concat_5/concat/axis", "shape": [], "dtype": "int32"}, {"name": "model_37/tf.nn.convolution_30/convolution/filter", "shape": [1, 1, 384, 256], "dtype": "float32", "quantization": {"dtype": "uint8", "min": -0.3188606584773344, "scale": 0.002592363077051499, "original_dtype": "float32"}}, {"name": "model_37/tf.math.add_42/Add/y", "shape": [256], "dtype": "float32", "quantization": {"dtype": "uint8", "min": -2.0409660629197663, "scale": 0.018724459292841892, "original_dtype": "float32"}}, {"name": "model_37/tf.nn.convolution_31/convolution/filter", "shape": [1, 1, 256, 128], "dtype": "float32", "quantization": {"dtype": "uint8", "min": -0.5773648901312959, "scale": 0.0031723345611609664, "original_dtype": "float32"}}, {"name": "model_37/tf.math.add_43/Add/y", "shape": [128], "dtype": "float32", "quantization": {"dtype": "uint8", "min": -0.5234262307484945, "scale": 0.015394889139661602, "original_dtype": "float32"}}, {"name": "model_37/tf.concat_6/concat/axis", "shape": [], "dtype": "int32"}, {"name": "model_37/tf.nn.convolution_32/convolution/filter", "shape": [1, 1, 512, 256], "dtype": "float32", "quantization": {"dtype": "uint8", "min": -0.2157747836673961, "scale": 0.0015635853888941746, "original_dtype": "float32"}}, {"name": "model_37/tf.math.add_44/Add/y", "shape": [256], "dtype": "float32", "quantization": {"dtype": "uint8", "min": -14.043947107651654, "scale": 0.09362631405101103, "original_dtype": "float32"}}, {"name": "model_37/tf.nn.convolution_33/convolution/filter", "shape": [1, 1, 256, 256], "dtype": "float32", "quantization": {"dtype": "uint8", "min": -1.5811102820377725, "scale": 0.01206954413769292, "original_dtype": "float32"}}, {"name": "model_37/tf.math.add_45/Add/y", "shape": [256], "dtype": "float32", "quantization": {"dtype": "uint8", "min": -4.8511260116801544, "scale": 0.033000857222313974, "original_dtype": "float32"}}, {"name": "model_37/tf.split/Const", "shape": [2], "dtype": "int32"}, {"name": "model_37/tf.split/split/split_dim", "shape": [], "dtype": "int32"}, {"name": "model_37/tf.nn.convolution_34/convolution/filter", "shape": [1, 1, 128, 256], "dtype": "float32", "quantization": {"dtype": "uint8", "min": -0.4675168209216174, "scale": 0.0038637753795174993, "original_dtype": "float32"}}, {"name": "model_37/tf.math.add_46/Add/y", "shape": [256], "dtype": "float32", "quantization": {"dtype": "uint8", "min": -8.173900338715198, "scale": 0.042795289731493186, "original_dtype": "float32"}}, {"name": "model_37/tf.compat.v1.transpose_42/transpose/perm", "shape": [4], "dtype": "int32"}, {"name": "model_37/tf.reshape_2/Reshape/shape", "shape": [4], "dtype": "int32"}, {"name": "model_37/tf.split_1/Const", "shape": [3], "dtype": "int32"}, {"name": "model_37/tf.split_1/split/split_dim", "shape": [], "dtype": "int32"}, {"name": "model_37/tf.reshape_5/Reshape/shape", "shape": [4], "dtype": "int32"}, {"name": "model_37/tf.compat.v1.transpose_58/transpose/perm", "shape": [4], "dtype": "int32"}, {"name": "model_37/tf.nn.convolution_162/convolution/filter", "shape": [3, 3, 1, 1], "dtype": "float32", "quantization": {"dtype": "uint8", "min": -0.43529453347711006, "scale": 0.0036889367243822884, "original_dtype": "float32"}}, {"name": "model_37/tf.concat_7/concat/axis", "shape": [], "dtype": "int32"}, {"name": "model_37/tf.nn.convolution_163/convolution/filter", "shape": [1, 1, 128, 128], "dtype": "float32", "quantization": {"dtype": "uint8", "min": -0.3628222204890906, "scale": 0.0029985307478437237, "original_dtype": "float32"}}, {"name": "model_37/tf.nn.convolution_164/convolution/filter", "shape": [1, 1, 128, 256], "dtype": "float32", "quantization": {"dtype": "uint8", "min": -0.2069884254067552, "scale": 0.0018317559770509308, "original_dtype": "float32"}}, {"name": "model_37/tf.math.add_53/Add/y", "shape": [256], "dtype": "float32", "quantization": {"dtype": "uint8", "min": -2.4799318481894104, "scale": 0.009840999397577025, "original_dtype": "float32"}}, {"name": "model_37/tf.nn.convolution_165/convolution/filter", "shape": [1, 1, 256, 128], "dtype": "float32", "quantization": {"dtype": "uint8", "min": -0.2795714364332311, "scale": 0.0020863540032330682, "original_dtype": "float32"}}, {"name": "model_37/tf.concat_8/concat/axis", "shape": [], "dtype": "int32"}, {"name": "model_37/tf.nn.convolution_166/convolution/filter", "shape": [1, 1, 256, 256], "dtype": "float32", "quantization": {"dtype": "uint8", "min": -0.19890029079773847, "scale": 0.001578573736489988, "original_dtype": "float32"}}, {"name": "model_37/tf.math.add_57/Add/y", "shape": [256], "dtype": "float32", "quantization": {"dtype": "uint8", "min": -3.1573260017469815, "scale": 0.0190200361551023, "original_dtype": "float32"}}, {"name": "model_37/tf.compat.v1.image.resize_nearest_neighbor/ResizeNearestNeighbor/size", "shape": [2], "dtype": "int32"}, {"name": "model_37/tf.strided_slice_4/ones_like/tensor", "shape": [4], "dtype": "int32"}, {"name": "model_37/tf.strided_slice_4/StridedSlice/end", "shape": [4], "dtype": "int32"}, {"name": "model_37/tf.strided_slice_4/ones_like", "shape": [4], "dtype": "int32"}, {"name": "model_37/tf.nn.convolution_13/convolution/filter", "shape": [1, 1, 64, 32], "dtype": "float32", "quantization": {"dtype": "uint8", "min": -0.5687101828116996, "scale": 0.003976994285396501, "original_dtype": "float32"}}, {"name": "model_37/tf.math.add_17/Add/y", "shape": [32], "dtype": "float32", "quantization": {"dtype": "uint8", "min": -0.37007971768285713, "scale": 0.005069585173737769, "original_dtype": "float32"}}, {"name": "model_37/tf.nn.convolution_15/convolution/filter", "shape": [3, 3, 32, 32], "dtype": "float32", "quantization": {"dtype": "uint8", "min": -0.9027152260144551, "scale": 0.005978246529897054, "original_dtype": "float32"}}, {"name": "model_37/tf.math.add_19/Add/y", "shape": [32], "dtype": "float32", "quantization": {"dtype": "uint8", "min": -1.6658220557605519, "scale": 0.013543268746020748, "original_dtype": "float32"}}, {"name": "model_37/tf.nn.convolution_16/convolution/filter", "shape": [3, 3, 32, 32], "dtype": "float32", "quantization": {"dtype": "uint8", "min": -0.4438605363462485, "scale": 0.00392796934819689, "original_dtype": "float32"}}, {"name": "model_37/tf.math.add_20/Add/y", "shape": [32], "dtype": "float32", "quantization": {"dtype": "uint8", "min": -1.092260046566234, "scale": 0.00902694253360524, "original_dtype": "float32"}}, {"name": "model_37/tf.nn.convolution_17/convolution/filter", "shape": [3, 3, 32, 32], "dtype": "float32", "quantization": {"dtype": "uint8", "min": -0.2735311662449556, "scale": 0.002056625310112448, "original_dtype": "float32"}}, {"name": "model_37/tf.math.add_23/Add/y", "shape": [32], "dtype": "float32", "quantization": {"dtype": "uint8", "min": -1.1618736743927, "scale": 0.012360358238220214, "original_dtype": "float32"}}, {"name": "model_37/tf.nn.convolution_18/convolution/filter", "shape": [3, 3, 32, 32], "dtype": "float32", "quantization": {"dtype": "uint8", "min": -0.8044518330517937, "scale": 0.006934929595274084, "original_dtype": "float32"}}, {"name": "model_37/tf.math.add_24/Add/y", "shape": [32], "dtype": "float32", "quantization": {"dtype": "uint8", "min": -0.6256929201238295, "scale": 0.011586905928219066, "original_dtype": "float32"}}, {"name": "model_37/tf.compat.v1.pad_3/Pad/paddings", "shape": [4, 2], "dtype": "int32"}, {"name": "model_37/tf.nn.convolution_11/convolution/filter", "shape": [3, 3, 128, 128], "dtype": "float32", "quantization": {"dtype": "uint8", "min": -0.32605874257929185, "scale": 0.0028601644085902793, "original_dtype": "float32"}}, {"name": "model_37/tf.math.add_15/Add/y", "shape": [128], "dtype": "float32", "quantization": {"dtype": "uint8", "min": -3.589657570334042, "scale": 0.020870102153104895, "original_dtype": "float32"}}, {"name": "model_37/tf.nn.convolution_12/convolution/filter", "shape": [1, 1, 128, 128], "dtype": "float32", "quantization": {"dtype": "uint8", "min": -0.8552098274230957, "scale": 0.006896853446960449, "original_dtype": "float32"}}, {"name": "model_37/tf.math.add_16/Add/y", "shape": [128], "dtype": "float32", "quantization": {"dtype": "uint8", "min": -2.2220496766707476, "scale": 0.016962211272295784, "original_dtype": "float32"}}, {"name": "model_37/tf.strided_slice_5/ones_like/tensor", "shape": [4], "dtype": "int32"}, {"name": "model_37/tf.strided_slice_5/StridedSlice/end", "shape": [4], "dtype": "int32"}, {"name": "model_37/tf.strided_slice_5/ones_like", "shape": [4], "dtype": "int32"}, {"name": "model_37/tf.nn.convolution_14/convolution/filter", "shape": [1, 1, 64, 32], "dtype": "float32", "quantization": {"dtype": "uint8", "min": -1.009545498268277, "scale": 0.008702978433347216, "original_dtype": "float32"}}, {"name": "model_37/tf.math.add_18/Add/y", "shape": [32], "dtype": "float32", "quantization": {"dtype": "uint8", "min": -2.01541509067311, "scale": 0.01199651839686375, "original_dtype": "float32"}}, {"name": "model_37/tf.concat_2/concat/axis", "shape": [], "dtype": "int32"}, {"name": "model_37/tf.nn.convolution_19/convolution/filter", "shape": [1, 1, 64, 64], "dtype": "float32", "quantization": {"dtype": "uint8", "min": -0.5062287765390733, "scale": 0.004440603302974327, "original_dtype": "float32"}}, {"name": "model_37/tf.math.add_27/Add/y", "shape": [64], "dtype": "float32", "quantization": {"dtype": "uint8", "min": -3.3238004908842202, "scale": 0.02680484266842113, "original_dtype": "float32"}}, {"name": "model_37/tf.concat_3/concat/axis", "shape": [], "dtype": "int32"}, {"name": "model_37/tf.nn.convolution_20/convolution/filter", "shape": [1, 1, 192, 128], "dtype": "float32", "quantization": {"dtype": "uint8", "min": -0.6204652790929757, "scale": 0.004885553378684848, "original_dtype": "float32"}}, {"name": "model_37/tf.math.add_28/Add/y", "shape": [128], "dtype": "float32", "quantization": {"dtype": "uint8", "min": -2.611654001123765, "scale": 0.014509188895132027, "original_dtype": "float32"}}, {"name": "model_37/tf.concat_9/concat/axis", "shape": [], "dtype": "int32"}, {"name": "model_37/tf.nn.convolution_167/convolution/filter", "shape": [1, 1, 384, 128], "dtype": "float32", "quantization": {"dtype": "uint8", "min": -0.44708698964586446, "scale": 0.003788872793609021, "original_dtype": "float32"}}, {"name": "model_37/tf.math.add_58/Add/y", "shape": [128], "dtype": "float32", "quantization": {"dtype": "uint8", "min": -3.366807507533653, "scale": 0.02172133875828163, "original_dtype": "float32"}}, {"name": "model_37/tf.strided_slice_9/ones_like/tensor", "shape": [4], "dtype": "int32"}, {"name": "model_37/tf.strided_slice_9/StridedSlice/end", "shape": [4], "dtype": "int32"}, {"name": "model_37/tf.strided_slice_9/ones_like", "shape": [4], "dtype": "int32"}, {"name": "model_37/tf.nn.convolution_168/convolution/filter", "shape": [3, 3, 64, 32], "dtype": "float32", "quantization": {"dtype": "uint8", "min": -0.5331152186674231, "scale": 0.006663940233342788, "original_dtype": "float32"}}, {"name": "model_37/tf.math.add_59/Add/y", "shape": [32], "dtype": "float32", "quantization": {"dtype": "uint8", "min": -1.7367508944343117, "scale": 0.020675605886122758, "original_dtype": "float32"}}, {"name": "model_37/tf.nn.convolution_169/convolution/filter", "shape": [3, 3, 32, 64], "dtype": "float32", "quantization": {"dtype": "uint8", "min": -0.635386693243887, "scale": 0.004293153332728966, "original_dtype": "float32"}}, {"name": "model_37/tf.math.add_60/Add/y", "shape": [64], "dtype": "float32", "quantization": {"dtype": "uint8", "min": -1.0008853430841482, "scale": 0.016964158357358445, "original_dtype": "float32"}}, {"name": "model_37/tf.concat_10/concat/axis", "shape": [], "dtype": "int32"}, {"name": "model_37/tf.nn.convolution_170/convolution/filter", "shape": [1, 1, 192, 128], "dtype": "float32", "quantization": {"dtype": "uint8", "min": -0.5008285697768716, "scale": 0.0038823920137741985, "original_dtype": "float32"}}, {"name": "model_37/tf.math.add_63/Add/y", "shape": [128], "dtype": "float32", "quantization": {"dtype": "uint8", "min": -2.377616960862104, "scale": 0.014497664395500633, "original_dtype": "float32"}}, {"name": "model_37/tf.compat.v1.image.resize_nearest_neighbor_1/ResizeNearestNeighbor/size", "shape": [2], "dtype": "int32"}, {"name": "model_37/tf.strided_slice_2/ones_like/tensor", "shape": [4], "dtype": "int32"}, {"name": "model_37/tf.strided_slice_2/StridedSlice/end", "shape": [4], "dtype": "int32"}, {"name": "model_37/tf.strided_slice_2/ones_like", "shape": [4], "dtype": "int32"}, {"name": "model_37/tf.strided_slice/ones_like/tensor", "shape": [4], "dtype": "int32"}, {"name": "model_37/tf.strided_slice/StridedSlice/end", "shape": [4], "dtype": "int32"}, {"name": "model_37/tf.strided_slice/ones_like", "shape": [4], "dtype": "int32"}, {"name": "model_37/tf.compat.v1.pad/Pad/paddings", "shape": [4, 2], "dtype": "int32"}, {"name": "model_37/tf.nn.convolution/convolution/filter", "shape": [3, 3, 3, 16], "dtype": "float32", "quantization": {"dtype": "uint8", "min": -22.90080889533548, "scale": 0.14313005559584674, "original_dtype": "float32"}}, {"name": "model_37/tf.math.add/Add/y", "shape": [16], "dtype": "float32", "quantization": {"dtype": "uint8", "min": -3.5091647727816713, "scale": 0.03987687241797354, "original_dtype": "float32"}}, {"name": "model_37/tf.compat.v1.pad_1/Pad/paddings", "shape": [4, 2], "dtype": "int32"}, {"name": "model_37/tf.nn.convolution_1/convolution/filter", "shape": [3, 3, 16, 32], "dtype": "float32", "quantization": {"dtype": "uint8", "min": -1.3586676504097732, "scale": 0.010614591018826353, "original_dtype": "float32"}}, {"name": "model_37/tf.math.add_1/Add/y", "shape": [32], "dtype": "float32", "quantization": {"dtype": "uint8", "min": -1.2985303518818876, "scale": 0.03710086719662536, "original_dtype": "float32"}}, {"name": "model_37/tf.nn.convolution_2/convolution/filter", "shape": [1, 1, 32, 32], "dtype": "float32", "quantization": {"dtype": "uint8", "min": -1.0289827497566448, "scale": 0.00527683461413664, "original_dtype": "float32"}}, {"name": "model_37/tf.math.add_2/Add/y", "shape": [32], "dtype": "float32", "quantization": {"dtype": "uint8", "min": 0.20826616883277893, "scale": 0.024013826309465896, "original_dtype": "float32"}}, {"name": "model_37/tf.strided_slice_1/ones_like/tensor", "shape": [4], "dtype": "int32"}, {"name": "model_37/tf.strided_slice_1/StridedSlice/end", "shape": [4], "dtype": "int32"}, {"name": "model_37/tf.strided_slice_1/ones_like", "shape": [4], "dtype": "int32"}, {"name": "model_37/tf.nn.convolution_3/convolution/filter", "shape": [3, 3, 16, 8], "dtype": "float32", "quantization": {"dtype": "uint8", "min": -1.0743669818429384, "scale": 0.008734690909292183, "original_dtype": "float32"}}, {"name": "model_37/tf.math.add_3/Add/y", "shape": [8], "dtype": "float32", "quantization": {"dtype": "uint8", "min": 0.2373521327972412, "scale": 0.009414376464544558, "original_dtype": "float32"}}, {"name": "model_37/tf.nn.convolution_4/convolution/filter", "shape": [3, 3, 8, 16], "dtype": "float32", "quantization": {"dtype": "uint8", "min": -4.115830988042495, "scale": 0.030946097654454847, "original_dtype": "float32"}}, {"name": "model_37/tf.math.add_4/Add/y", "shape": [16], "dtype": "float32", "quantization": {"dtype": "uint8", "min": -3.0010790740742403, "scale": 0.03297889092389275, "original_dtype": "float32"}}, {"name": "model_37/tf.concat/concat/axis", "shape": [], "dtype": "int32"}, {"name": "model_37/tf.nn.convolution_5/convolution/filter", "shape": [1, 1, 48, 64], "dtype": "float32", "quantization": {"dtype": "uint8", "min": -1.6907297863679775, "scale": 0.012808558987636193, "original_dtype": "float32"}}, {"name": "model_37/tf.math.add_7/Add/y", "shape": [64], "dtype": "float32", "quantization": {"dtype": "uint8", "min": -4.082311450733858, "scale": 0.04859894584206974, "original_dtype": "float32"}}, {"name": "model_37/tf.compat.v1.pad_2/Pad/paddings", "shape": [4, 2], "dtype": "int32"}, {"name": "model_37/tf.nn.convolution_6/convolution/filter", "shape": [3, 3, 64, 64], "dtype": "float32", "quantization": {"dtype": "uint8", "min": -0.22494616788976332, "scale": 0.001757391936638776, "original_dtype": "float32"}}, {"name": "model_37/tf.math.add_8/Add/y", "shape": [64], "dtype": "float32", "quantization": {"dtype": "uint8", "min": -1.5168870963302312, "scale": 0.016487903220980774, "original_dtype": "float32"}}, {"name": "model_37/tf.nn.convolution_7/convolution/filter", "shape": [1, 1, 64, 64], "dtype": "float32", "quantization": {"dtype": "uint8", "min": -0.9304275802537506, "scale": 0.0063727916455736345, "original_dtype": "float32"}}, {"name": "model_37/tf.math.add_9/Add/y", "shape": [64], "dtype": "float32", "quantization": {"dtype": "uint8", "min": -2.3425912857055664, "scale": 0.027559897478889015, "original_dtype": "float32"}}, {"name": "model_37/tf.strided_slice_3/ones_like/tensor", "shape": [4], "dtype": "int32"}, {"name": "model_37/tf.strided_slice_3/StridedSlice/end", "shape": [4], "dtype": "int32"}, {"name": "model_37/tf.strided_slice_3/ones_like", "shape": [4], "dtype": "int32"}, {"name": "model_37/tf.nn.convolution_8/convolution/filter", "shape": [3, 3, 32, 16], "dtype": "float32", "quantization": {"dtype": "uint8", "min": -0.7075668026419246, "scale": 0.00431443172342637, "original_dtype": "float32"}}, {"name": "model_37/tf.math.add_10/Add/y", "shape": [16], "dtype": "float32", "quantization": {"dtype": "uint8", "min": 0.14696311950683594, "scale": 0.00831595028147978, "original_dtype": "float32"}}, {"name": "model_37/tf.nn.convolution_9/convolution/filter", "shape": [3, 3, 16, 32], "dtype": "float32", "quantization": {"dtype": "uint8", "min": -0.552280142026789, "scale": 0.00472034309424606, "original_dtype": "float32"}}, {"name": "model_37/tf.math.add_11/Add/y", "shape": [32], "dtype": "float32", "quantization": {"dtype": "uint8", "min": -0.8961334845599006, "scale": 0.018288438460406134, "original_dtype": "float32"}}, {"name": "model_37/tf.concat_1/concat/axis", "shape": [], "dtype": "int32"}, {"name": "model_37/tf.nn.convolution_10/convolution/filter", "shape": [1, 1, 96, 128], "dtype": "float32", "quantization": {"dtype": "uint8", "min": -0.8522036580478444, "scale": 0.006456088318544276, "original_dtype": "float32"}}, {"name": "model_37/tf.math.add_14/Add/y", "shape": [128], "dtype": "float32", "quantization": {"dtype": "uint8", "min": -2.6410572762582816, "scale": 0.022965715445724188, "original_dtype": "float32"}}, {"name": "model_37/tf.concat_11/concat/axis", "shape": [], "dtype": "int32"}, {"name": "model_37/tf.nn.convolution_171/convolution/filter", "shape": [1, 1, 256, 64], "dtype": "float32", "quantization": {"dtype": "uint8", "min": -0.9448209650376264, "scale": 0.006748721178840188, "original_dtype": "float32"}}, {"name": "model_37/tf.math.add_64/Add/y", "shape": [64], "dtype": "float32", "quantization": {"dtype": "uint8", "min": -2.800955176820942, "scale": 0.023148389891082165, "original_dtype": "float32"}}, {"name": "model_37/tf.strided_slice_11/ones_like/tensor", "shape": [4], "dtype": "int32"}, {"name": "model_37/tf.strided_slice_11/StridedSlice/end", "shape": [4], "dtype": "int32"}, {"name": "model_37/tf.strided_slice_11/ones_like", "shape": [4], "dtype": "int32"}, {"name": "model_37/tf.nn.convolution_172/convolution/filter", "shape": [3, 3, 32, 16], "dtype": "float32", "quantization": {"dtype": "uint8", "min": -0.9214568867402918, "scale": 0.007491519404392616, "original_dtype": "float32"}}, {"name": "model_37/tf.math.add_65/Add/y", "shape": [16], "dtype": "float32", "quantization": {"dtype": "uint8", "min": -2.0685184964946672, "scale": 0.015790217530493644, "original_dtype": "float32"}}, {"name": "model_37/tf.nn.convolution_173/convolution/filter", "shape": [3, 3, 16, 32], "dtype": "float32", "quantization": {"dtype": "uint8", "min": -0.8547477156508203, "scale": 0.0057365618500055055, "original_dtype": "float32"}}, {"name": "model_37/tf.math.add_66/Add/y", "shape": [32], "dtype": "float32", "quantization": {"dtype": "uint8", "min": -0.8547857572050656, "scale": 0.014996241354474834, "original_dtype": "float32"}}, {"name": "model_37/tf.concat_12/concat/axis", "shape": [], "dtype": "int32"}, {"name": "model_37/tf.nn.convolution_174/convolution/filter", "shape": [1, 1, 96, 64], "dtype": "float32", "quantization": {"dtype": "uint8", "min": -0.9725308324776444, "scale": 0.006707109189500996, "original_dtype": "float32"}}, {"name": "model_37/tf.math.add_69/Add/y", "shape": [64], "dtype": "float32", "quantization": {"dtype": "uint8", "min": -1.8403915405273437, "scale": 0.019170745213826498, "original_dtype": "float32"}}, {"name": "model_37/tf.nn.convolution_176/convolution/filter", "shape": [3, 3, 64, 64], "dtype": "float32", "quantization": {"dtype": "uint8", "min": -0.41906749758065914, "scale": 0.00319898853115007, "original_dtype": "float32"}}, {"name": "model_37/tf.math.add_71/Add/y", "shape": [64], "dtype": "float32", "quantization": {"dtype": "uint8", "min": -1.5156526995640176, "scale": 0.010598969927021102, "original_dtype": "float32"}}, {"name": "model_37/tf.math.add_75/Add/y", "shape": [64], "dtype": "float32", "quantization": {"dtype": "uint8", "min": -0.2720703125, "scale": 0.0022863051470588236, "original_dtype": "float32"}}, {"name": "model_37/tf.nn.convolution_183/convolution/filter", "shape": [3, 3, 64, 64], "dtype": "float32", "quantization": {"dtype": "uint8", "min": -0.23026249508063, "scale": 0.0019349789502573949, "original_dtype": "float32"}}, {"name": "model_37/tf.math.add_80/Add/y", "shape": [64], "dtype": "float32", "quantization": {"dtype": "uint8", "min": -2.158591753127528, "scale": 0.0094261648608189, "original_dtype": "float32"}}, {"name": "model_37/tf.nn.convolution_186/convolution/filter", "shape": [1, 1, 64, 32], "dtype": "float32", "quantization": {"dtype": "uint8", "min": -3.922093551299151, "scale": 0.03188693944145651, "original_dtype": "float32"}}, {"name": "model_37/tf.math.add_84/Add/y", "shape": [32], "dtype": "float32", "quantization": {"dtype": "uint8", "min": -5.297561204667185, "scale": 0.025347182797450647, "original_dtype": "float32"}}]}]}